name: "spindlenet"

layer {
  name: "data/spindle"
  type: "Python"
  top: "data"
  top: "label"
  top: "headbox"
  top: "bodybox"
  top: "legbox"
  top: "rarmbox"
  top: "larmbox"
  top: "rlegbox"
  top: "llegbox"
  python_param {
    module: "roi_data_layer"
    layer: "RoiDataLayer"
    param_str: "{'source': 'external/exp/datalists/${dataset}/${subset}_p.txt', 'root_folder': 'external/exp/datasets/${dataset}/', 'batch_size': 50, 'new_height': 96, 'new_width': 96, 'shuffle': False, 'mirror': False, 'mean_value': [103.939,116.779,123.68], 'region_num': 7, 'region_scale': True}"
  }
}

######################### conv1 #########################

layer {
  name: "conv1"
  type: "Convolution"
  bottom: "data"
  top: "conv1"
  param {
    lr_mult: 0
    decay_mult: 0
  }
  convolution_param {
    num_output: 32
    bias_term: false
    pad: 1
    kernel_size: 3
    stride: 1
    weight_filler {
      type: "xavier"
    }
  }
}

layer {
  name: "conv1_bn"
  type: "BatchNorm"
  bottom: "conv1"
  top: "conv1"
  param {
    lr_mult: 0
    decay_mult: 0
  }
  param {
    lr_mult: 0
    decay_mult: 0
  }
  param {
    lr_mult: 0
    decay_mult: 0
  }
  batch_norm_param {
    use_global_stats: true
  }
}

layer {
  name: "conv1_scale"
  type: "Scale"
  bottom: "conv1"
  top: "conv1"
  param {
    lr_mult: 0
    decay_mult: 0
  }
  param {
    lr_mult: 0
    decay_mult: 0
  }
  scale_param {
    bias_term: true
  }
}

layer {
  name: "relu1"
  type: "ReLU"
  bottom: "conv1"
  top: "conv1"
}

######################### conv2 #########################

layer {
  name: "conv2"
  type: "Convolution"
  bottom: "conv1"
  top: "conv2"
  param {
    lr_mult: 0
    decay_mult: 0
  }
  convolution_param {
    num_output: 32
    bias_term: false
    pad: 1
    kernel_size: 3
    stride: 1
    weight_filler {
      type: "xavier"
    }
  } 
}

layer {
  name: "conv2_bn"
  type: "BatchNorm"
  bottom: "conv2"
  top: "conv2"
  batch_norm_param {
    use_global_stats: true
  }
}

layer {
  name: "conv2_scale"
  type: "Scale"
  bottom: "conv2"
  top: "conv2"
  scale_param {
    bias_term: true
  }
}

layer {
  name: "relu2"
  type: "ReLU"
  bottom: "conv2"
  top: "conv2"
}

######################### conv3 #########################

layer {
  name: "conv3"
  type: "Convolution"
  bottom: "conv2"
  top: "conv3"
  param {
    lr_mult: 0
    decay_mult: 0
  }
  convolution_param {
    num_output: 64
    bias_term: false
    pad: 1
    kernel_size: 3
    stride: 1
    weight_filler {
      type: "xavier"
    }
  }
}

layer {
  name: "conv3_bn"
  type: "BatchNorm"
  bottom: "conv3"
  top: "conv3"
  batch_norm_param {
    use_global_stats: true
  }
}

layer {
  name: "conv3_scale"
  type: "Scale"
  bottom: "conv3"
  top: "conv3"
  scale_param {
    bias_term: true
  }
}

layer {
  name: "relu3"
  type: "ReLU"
  bottom: "conv3"
  top: "conv3"
}

layer {
  name: "pool1"
  type: "Pooling"
  bottom: "conv3"
  top: "pool1"
  pooling_param {
    pool: MAX
    kernel_size: 2
    stride: 2
  }
}

######################### inception 1a ##################

layer {
  name: "inception_1a/1x1"
  type: "Convolution"
  bottom: "pool1"
  top: "inception_1a/1x1"
  param {
    lr_mult: 0
    decay_mult: 0
  }
  convolution_param {
    num_output: 64
    bias_term: false
    kernel_size: 1
    weight_filler {
      type: "xavier"
    }
  }
}

layer {
  name: "inception_1a/1x1_bn"
  type: "BatchNorm"
  bottom: "inception_1a/1x1"
  top: "inception_1a/1x1"
  batch_norm_param {
    use_global_stats: true
  }
}

layer {
  name: "inception_1a/1x1_scale"
  type: "Scale"
  bottom: "inception_1a/1x1"
  top: "inception_1a/1x1"
  scale_param {
    bias_term: true
  }
}

layer {
  name: "inception_1a/relu_1x1"
  type: "ReLU"
  bottom: "inception_1a/1x1"
  top: "inception_1a/1x1"
}

layer {
  name: "inception_1a/3x3_reduce"
  type: "Convolution"
  bottom: "pool1"
  top: "inception_1a/3x3_reduce"
  param {
    lr_mult: 0
    decay_mult: 0
  }
  convolution_param {
    num_output: 64
    bias_term: false
    kernel_size: 1
    weight_filler {
      type: "xavier"
    }
  }
}

layer {
  name: "inception_1a/3x3_reduce_bn"
  type: "BatchNorm"
  bottom: "inception_1a/3x3_reduce"
  top: "inception_1a/3x3_reduce"
  batch_norm_param {
    use_global_stats: true
  }
}

layer {
  name: "inception_1a/3x3_reduce_scale"
  type: "Scale"
  bottom: "inception_1a/3x3_reduce"
  top: "inception_1a/3x3_reduce"
  scale_param {
    bias_term: true
  }
}

layer {
  name: "inception_1a/relu_3x3_reduce"
  type: "ReLU"
  bottom: "inception_1a/3x3_reduce"
  top: "inception_1a/3x3_reduce"
}

layer {
  name: "inception_1a/3x3"
  type: "Convolution"
  bottom: "inception_1a/3x3_reduce"
  top: "inception_1a/3x3"
	param {
    lr_mult: 0
    decay_mult: 0
  }
  convolution_param {
    num_output: 64
    bias_term: false
    pad: 1
    kernel_size: 3
    stride: 1
    weight_filler {
      type: "xavier"
    }
  }
}

layer {
  name: "inception_1a/3x3_bn"
  type: "BatchNorm"
  bottom: "inception_1a/3x3"
  top: "inception_1a/3x3"
  batch_norm_param {
    use_global_stats: true
  }
}

layer {
  name: "inception_1a/3x3_scale"
  type: "Scale"
  bottom: "inception_1a/3x3"
  top: "inception_1a/3x3"
  scale_param {
    bias_term: true
  }
}

layer {
  name: "inception_1a/relu_3x3"
  type: "ReLU"
  bottom: "inception_1a/3x3"
  top: "inception_1a/3x3"
}

layer {
  name: "inception_1a/double_3x3_reduce"
  type: "Convolution"
  bottom: "pool1"
  top: "inception_1a/double_3x3_reduce"
  param {
    lr_mult: 0
    decay_mult: 0
  }
  convolution_param {
    num_output: 64
    bias_term: false
    kernel_size: 1
    weight_filler {
      type: "xavier"
    }
  }
}

layer {
  name: "inception_1a/double_3x3_reduce_bn"
  type: "BatchNorm"
  bottom: "inception_1a/double_3x3_reduce"
  top: "inception_1a/double_3x3_reduce"
  batch_norm_param {
    use_global_stats: true
  }
}

layer {
  name: "inception_1a/double_3x3_reduce_scale"
  type: "Scale"
  bottom: "inception_1a/double_3x3_reduce"
  top: "inception_1a/double_3x3_reduce"
  scale_param {
    bias_term: true
  }
}

layer {
  name: "inception_1a/relu_double_3x3_reduce"
  type: "ReLU"
  bottom: "inception_1a/double_3x3_reduce"
  top: "inception_1a/double_3x3_reduce"
}

layer {
  name: "inception_1a/double_3x3_1"
  type: "Convolution"
  bottom: "inception_1a/double_3x3_reduce"
  top: "inception_1a/double_3x3_1"
  param {
    lr_mult: 0
    decay_mult: 0
  }
  convolution_param {
    num_output: 64
    bias_term: false
    pad: 1
    kernel_size: 3
    stride: 1
    weight_filler {
      type: "xavier"
    }
  }
}

layer {
  name: "inception_1a/double_3x3_1_bn"
  type: "BatchNorm"
  bottom: "inception_1a/double_3x3_1"
  top: "inception_1a/double_3x3_1"
  batch_norm_param {
    use_global_stats: true
  }
}

layer {
  name: "inception_1a/double_3x3_1_scale"
  type: "Scale"
  bottom: "inception_1a/double_3x3_1"
  top: "inception_1a/double_3x3_1"
  scale_param {
    bias_term: true
  }
}

layer {
  name: "inception_1a/relu_double_3x3_1"
  type: "ReLU"
  bottom: "inception_1a/double_3x3_1"
  top: "inception_1a/double_3x3_1"
}

layer {
  name: "inception_1a/double_3x3_2"
  type: "Convolution"
  bottom: "inception_1a/double_3x3_1"
  top: "inception_1a/double_3x3_2"
  param {
    lr_mult: 0
    decay_mult: 0
  }
  convolution_param {
    num_output: 64
    bias_term: false
    pad: 1
    kernel_size: 3
    stride: 1
    weight_filler {
      type: "xavier"
    }
  }
}

layer {
  name: "inception_1a/double_3x3_2_bn"
  type: "BatchNorm"
  bottom: "inception_1a/double_3x3_2"
  top: "inception_1a/double_3x3_2"
  batch_norm_param {
    use_global_stats: true
  }
}

layer {
  name: "inception_1a/double_3x3_2_scale"
  type: "Scale"
  bottom: "inception_1a/double_3x3_2"
  top: "inception_1a/double_3x3_2"
  scale_param {
    bias_term: true
  }
}

layer {
  name: "inception_1a/relu_double_3x3_2"
  type: "ReLU"
  bottom: "inception_1a/double_3x3_2"
  top: "inception_1a/double_3x3_2"
}

layer {
  name: "inception_1a/pool"
  type: "Pooling"
  bottom: "pool1"
  top: "inception_1a/pool"
  pooling_param {
    pool: AVE
    kernel_size: 3
    stride: 1
    pad: 1
  }
}

layer {
  name: "inception_1a/pool_proj"
  type: "Convolution"
  bottom: "inception_1a/pool"
  top: "inception_1a/pool_proj"
  param {
    lr_mult: 0
    decay_mult: 0
  }
  convolution_param {
    num_output: 64
    bias_term: false
    kernel_size: 1
    stride: 1
    weight_filler {
      type: "xavier"
    }
  }
}

layer {
  name: "inception_1a/pool_proj_bn"
  type: "BatchNorm"
  bottom: "inception_1a/pool_proj"
  top: "inception_1a/pool_proj"
  batch_norm_param {
    use_global_stats: true
  }
}

layer {
  name: "inception_1a/pool_proj_scale"
  type: "Scale"
  bottom: "inception_1a/pool_proj"
  top: "inception_1a/pool_proj"
  scale_param {
    bias_term: true
  }
}

layer {
  name: "inception_1a/relu_pool_proj"
  type: "ReLU"
  bottom: "inception_1a/pool_proj"
  top: "inception_1a/pool_proj"
}

layer {
  name: "inception_1a/output"
  type: "Concat"
  bottom: "inception_1a/1x1"
  bottom: "inception_1a/3x3"
  bottom: "inception_1a/double_3x3_2"
  bottom: "inception_1a/pool_proj"
  top: "inception_1a/output"
}

######################### inception_1b #########################

layer {
  name: "inception_1b/3x3_reduce"
  type: "Convolution"
  bottom: "inception_1a/output"
  top: "inception_1b/3x3_reduce"
  param {
    lr_mult: 0
    decay_mult: 0
  }
  convolution_param {
    num_output: 64
    bias_term: false
    kernel_size: 1
    stride: 1
    weight_filler {
      type: "xavier"
    }
  }
}

layer {
  name: "inception_1b/3x3_reduce_bn"
  type: "BatchNorm"
  bottom: "inception_1b/3x3_reduce"
  top: "inception_1b/3x3_reduce"
  batch_norm_param {
    use_global_stats: true
  }
}

layer {
  name: "inception_1b/3x3_reduce_scale"
  type: "Scale"
  bottom: "inception_1b/3x3_reduce"
  top: "inception_1b/3x3_reduce"
  scale_param {
    bias_term: true
  }
}

layer {
  name: "inception_1b/relu_3x3_reduce"
  type: "ReLU"
  bottom: "inception_1b/3x3_reduce"
  top: "inception_1b/3x3_reduce"
}

layer {
  name: "inception_1b/3x3"
  type: "Convolution"
  bottom: "inception_1b/3x3_reduce"
  top: "inception_1b/3x3"
  param {
    lr_mult: 0
    decay_mult: 0
  }
  convolution_param {
    num_output: 64
    bias_term: false
    pad: 1
    kernel_size: 3
    stride: 2
    weight_filler {
      type: "xavier"
    }
  }
}

layer {
  name: "inception_1b/3x3_bn"
  type: "BatchNorm"
  bottom: "inception_1b/3x3"
  top: "inception_1b/3x3"
  batch_norm_param {
    use_global_stats: true
  }
}

layer {
  name: "inception_1b/3x3_scale"
  type: "Scale"
  bottom: "inception_1b/3x3"
  top: "inception_1b/3x3"
  scale_param {
    bias_term: true
  }
}

layer {
  name: "inception_1b/relu_3x3"
  type: "ReLU"
  bottom: "inception_1b/3x3"
  top: "inception_1b/3x3"
}

layer {
  name: "inception_1b/double_3x3_reduce"
  type: "Convolution"
  bottom: "inception_1a/output"
  top: "inception_1b/double_3x3_reduce"
  param {
    lr_mult: 0
    decay_mult: 0
  }
  convolution_param {
    num_output: 64
    bias_term: false
    pad: 1
    kernel_size: 3
    stride: 1
    weight_filler {
      type: "xavier"
    }
  }
}

layer {
  name: "inception_1b/double_3x3_reduce_bn"
  type: "BatchNorm"
  bottom: "inception_1b/double_3x3_reduce"
  top: "inception_1b/double_3x3_reduce"
  batch_norm_param {
    use_global_stats: true
  }
}

layer {
  name: "inception_1b/double_3x3_reduce_scale"
  type: "Scale"
  bottom: "inception_1b/double_3x3_reduce"
  top: "inception_1b/double_3x3_reduce"
  scale_param {
    bias_term: true
  }
}

layer {
  name: "inception_1b/relu_double_3x3_reduce"
  type: "ReLU"
  bottom: "inception_1b/double_3x3_reduce"
  top: "inception_1b/double_3x3_reduce"
}

layer {
  name: "inception_1b/double_3x3_1"
  type: "Convolution"
  bottom: "inception_1b/double_3x3_reduce"
  top: "inception_1b/double_3x3_1"
  param {
    lr_mult: 0
    decay_mult: 0
  }
  convolution_param {
    num_output: 64
    bias_term: false
    kernel_size: 1 
    stride: 1
    weight_filler {
      type: "xavier"
    }
  }
}

layer {
  name: "inception_1b/double_3x3_1_bn"
  type: "BatchNorm"
  bottom: "inception_1b/double_3x3_1"
  top: "inception_1b/double_3x3_1"
  batch_norm_param {
    use_global_stats: true
  }
}

layer {
  name: "inception_1b/double_3x3_1_scale"
  type: "Scale"
  bottom: "inception_1b/double_3x3_1"
  top: "inception_1b/double_3x3_1"
  scale_param {
    bias_term: true
  }
}

layer {
  name: "inception_1b/relu_double_3x3_1"
  type: "ReLU"
  bottom: "inception_1b/double_3x3_1"
  top: "inception_1b/double_3x3_1"
}

layer {
  name: "inception_1b/double_3x3_2"
  type: "Convolution"
  bottom: "inception_1b/double_3x3_1"
  top: "inception_1b/double_3x3_2"
  param {
    lr_mult: 0
    decay_mult: 0
  }
  convolution_param {
    num_output: 64
    bias_term: false
    pad: 1
    kernel_size: 3
    stride: 2
    weight_filler {
      type: "xavier"
    }
  }
}

layer {
  name: "inception_1b/double_3x3_2_bn"
  type: "BatchNorm"
  bottom: "inception_1b/double_3x3_2"
  top: "inception_1b/double_3x3_2"
  batch_norm_param {
    use_global_stats: true
  }
}

layer {
  name: "inception_1b/double_3x3_2_scale"
  type: "Scale"
  bottom: "inception_1b/double_3x3_2"
  top: "inception_1b/double_3x3_2"
  scale_param {
    bias_term: true
  }
}

layer {
  name: "inception_1b/relu_double_3x3_2"
  type: "ReLU"
  bottom: "inception_1b/double_3x3_2"
  top: "inception_1b/double_3x3_2"
}

layer {
  name: "inception_1b/pool"
  type: "Pooling"
  bottom: "inception_1a/output"
  top: "inception_1b/pool"
  pooling_param {
    pool: MAX
    kernel_size: 3
    stride: 2
  }
}

layer {
  name: "inception_1b/output"
  type: "Concat"
  bottom: "inception_1b/3x3"
  bottom: "inception_1b/double_3x3_2"
  bottom: "inception_1b/pool"
  top: "inception_1b/output"
}

######################### inception_2a #########################

layer {
  name: "inception_2a/1x1"
  type: "Convolution"
  bottom: "inception_1b/output"
  top: "inception_2a/1x1"
  param {
    lr_mult: 0
    decay_mult: 0
  }
  convolution_param {
    num_output: 128
    bias_term: false
    kernel_size: 1
    stride: 1
    weight_filler {
      type: "xavier"
    }
  }
}

layer {
  name: "inception_2a/1x1_bn"
  type: "BatchNorm"
  bottom: "inception_2a/1x1"
  top: "inception_2a/1x1"
  batch_norm_param {
    use_global_stats: true
  }
}

layer {
  name: "inception_2a/1x1_scale"
  type: "Scale"
  bottom: "inception_2a/1x1"
  top: "inception_2a/1x1"
  scale_param {
    bias_term: true
  }
}

layer {
  name: "inception_2a/relu_1x1"
  type: "ReLU"
  bottom: "inception_2a/1x1"
  top: "inception_2a/1x1"
}

layer {
  name: "inception_2a/3x3_reduce"
  type: "Convolution"
  bottom: "inception_1b/output"
  top: "inception_2a/3x3_reduce"
  param {
    lr_mult: 0
    decay_mult: 0
  }
  convolution_param {
    num_output: 128
    bias_term: false
    kernel_size: 1
    stride: 1
    weight_filler {
      type: "xavier"
    }
  }
}

layer {
  name: "inception_2a/3x3_reduce_bn"
  type: "BatchNorm"
  bottom: "inception_2a/3x3_reduce"
  top: "inception_2a/3x3_reduce"
  batch_norm_param {
    use_global_stats: true
  }
}

layer {
  name: "inception_2a/3x3_reduce_scale"
  type: "Scale"
  bottom: "inception_2a/3x3_reduce"
  top: "inception_2a/3x3_reduce"
  scale_param {
    bias_term: true
  }
}

layer {
  name: "inception_2a/relu_3x3_reduce"
  type: "ReLU"
  bottom: "inception_2a/3x3_reduce"
  top: "inception_2a/3x3_reduce"
}

layer {
  name: "inception_2a/3x3"
  type: "Convolution"
  bottom: "inception_2a/3x3_reduce"
  top: "inception_2a/3x3"
  param {
    lr_mult: 0
    decay_mult: 0
  }
  convolution_param {
    num_output: 128
    bias_term: false
    pad: 1
    kernel_size: 3
    stride: 1
    weight_filler {
      type: "xavier"
    }
  }
}

layer {
  name: "inception_2a/3x3_bn"
  type: "BatchNorm"
  bottom: "inception_2a/3x3"
  top: "inception_2a/3x3"
  batch_norm_param {
    use_global_stats: true
  }
}

layer {
  name: "inception_2a/3x3_scale"
  type: "Scale"
  bottom: "inception_2a/3x3"
  top: "inception_2a/3x3"
  scale_param {
    bias_term: true
  }
}

layer {
  name: "inception_2a/relu_3x3"
  type: "ReLU"
  bottom: "inception_2a/3x3"
  top: "inception_2a/3x3"
}

layer {
  name: "inception_2a/double_3x3_reduce"
  type: "Convolution"
  bottom: "inception_1b/output"
  top: "inception_2a/double_3x3_reduce"
  param {
    lr_mult: 0
    decay_mult: 0
  }
  convolution_param {
    num_output: 128
    bias_term: false
    kernel_size: 1
    stride: 1
    weight_filler {
      type: "xavier"
    }
  }
}

layer {
  name: "inception_2a/double_3x3_reduce_bn"
  type: "BatchNorm"
  bottom: "inception_2a/double_3x3_reduce"
  top: "inception_2a/double_3x3_reduce"
  batch_norm_param {
    use_global_stats: true
  }
}

layer {
  name: "inception_2a/double_3x3_reduce_scale"
  type: "Scale"
  bottom: "inception_2a/double_3x3_reduce"
  top: "inception_2a/double_3x3_reduce"
  scale_param {
    bias_term: true
  }
}

layer {
  name: "inception_2a/relu_double_3x3_reduce"
  type: "ReLU"
  bottom: "inception_2a/double_3x3_reduce"
  top: "inception_2a/double_3x3_reduce"
}

layer {
  name: "inception_2a/double_3x3_1"
  type: "Convolution"
  bottom: "inception_2a/double_3x3_reduce"
  top: "inception_2a/double_3x3_1"
  param {
    lr_mult: 0
    decay_mult: 0
  }
  convolution_param {
    num_output: 128
    bias_term: false
    pad: 1
    kernel_size: 3
    stride: 1
    weight_filler {
      type: "xavier"
    }
  }
}

layer {
  name: "inception_2a/double_3x3_1_bn"
  type: "BatchNorm"
  bottom: "inception_2a/double_3x3_1"
  top: "inception_2a/double_3x3_1"
  batch_norm_param {
    use_global_stats: true
  }
}

layer {
  name: "inception_2a/double_3x3_1_scale"
  type: "Scale"
  bottom: "inception_2a/double_3x3_1"
  top: "inception_2a/double_3x3_1"
  scale_param {
    bias_term: true
  }
}

layer {
  name: "inception_2a/relu_double_3x3_1"
  type: "ReLU"
  bottom: "inception_2a/double_3x3_1"
  top: "inception_2a/double_3x3_1"
}

layer {
  name: "inception_2a/double_3x3_2"
  type: "Convolution"
  bottom: "inception_2a/double_3x3_1"
  top: "inception_2a/double_3x3_2"
  param {
    lr_mult: 0
    decay_mult: 0
  }
  convolution_param {
    num_output: 128
    bias_term: false
    pad: 1
    kernel_size: 3
    stride: 1
    weight_filler {
      type: "xavier"
    }
  }
}

layer {
  name: "inception_2a/double_3x3_2_bn"
  type: "BatchNorm"
  bottom: "inception_2a/double_3x3_2"
  top: "inception_2a/double_3x3_2"
  batch_norm_param {
    use_global_stats: true
  }
}

layer {
  name: "inception_2a/double_3x3_2_scale"
  type: "Scale"
  bottom: "inception_2a/double_3x3_2"
  top: "inception_2a/double_3x3_2"
  scale_param {
    bias_term: true
  }
}

layer {
  name: "inception_2a/relu_double_3x3_2"
  type: "ReLU"
  bottom: "inception_2a/double_3x3_2"
  top: "inception_2a/double_3x3_2"
}

layer {
  name: "inception_2a/pool"
  type: "Pooling"
  bottom: "inception_1b/output"
  top: "inception_2a/pool"
  pooling_param {
    pool: AVE
    kernel_size: 3
    stride: 1
    pad: 1
  }
}

layer {
  name: "inception_2a/pool_proj"
  type: "Convolution"
  bottom: "inception_2a/pool"
  top: "inception_2a/pool_proj"
  param {
    lr_mult: 0
    decay_mult: 0
  }
  convolution_param {
    num_output: 128
    bias_term: false
    kernel_size: 1
    stride: 1
    weight_filler {
      type: "xavier"
    }
  }
}

layer {
  name: "inception_2a/pool_proj_bn"
  type: "BatchNorm"
  bottom: "inception_2a/pool_proj"
  top: "inception_2a/pool_proj"
  batch_norm_param {
    use_global_stats: true
  }
}

layer {
  name: "inception_2a/pool_proj_scale"
  type: "Scale"
  bottom: "inception_2a/pool_proj"
  top: "inception_2a/pool_proj"
  scale_param {
    bias_term: true
  }
}

layer {
  name: "inception_2a/relu_pool_proj"
  type: "ReLU"
  bottom: "inception_2a/pool_proj"
  top: "inception_2a/pool_proj"
}

layer {
  name: "inception_2a/output"
  type: "Concat"
  bottom: "inception_2a/1x1"
  bottom: "inception_2a/3x3"
  bottom: "inception_2a/double_3x3_2"
  bottom: "inception_2a/pool_proj"
  top: "inception_2a/output"
}

########################### inception_2b #########################

layer {
  name: "inception_2b/3x3_reduce"
  type: "Convolution"
  bottom: "inception_2a/output"
  top: "inception_2b/3x3_reduce"
  param {
    lr_mult: 0
    decay_mult: 0
  }
  convolution_param {
    num_output: 128
    bias_term: false
    kernel_size: 1
    stride: 1
    weight_filler {
      type: "xavier"
    }
  }
}

layer {
  name: "inception_2b/3x3_reduce_bn"
  type: "BatchNorm"
  bottom: "inception_2b/3x3_reduce"
  top: "inception_2b/3x3_reduce"
  batch_norm_param {
    use_global_stats: true
  }
}

layer {
  name: "inception_2b/3x3_reduce_scale"
  type: "Scale"
  bottom: "inception_2b/3x3_reduce"
  top: "inception_2b/3x3_reduce"
  scale_param {
    bias_term: true
  }
}

layer {
  name: "inception_2b/relu_3x3_reduce"
  type: "ReLU"
  bottom: "inception_2b/3x3_reduce"
  top: "inception_2b/3x3_reduce"
}

layer {
  name: "inception_2b/3x3"
  type: "Convolution"
  bottom: "inception_2b/3x3_reduce"
  top: "inception_2b/3x3"
  param {
    lr_mult: 0
    decay_mult: 0
  }
  convolution_param {
    num_output: 128
    bias_term: false
    pad: 1
    kernel_size: 3
    stride: 2
    weight_filler {
      type: "xavier"
    }
  }
}

layer {
  name: "inception_2b/3x3_bn"
  type: "BatchNorm"
  bottom: "inception_2b/3x3"
  top: "inception_2b/3x3"
  batch_norm_param {
    use_global_stats: true
  }
}

layer {
  name: "inception_2b/3x3_scale"
  type: "Scale"
  bottom: "inception_2b/3x3"
  top: "inception_2b/3x3"
  scale_param {
    bias_term: true
  }
}

layer {
  name: "inception_2b/relu_3x3"
  type: "ReLU"
  bottom: "inception_2b/3x3"
  top: "inception_2b/3x3"
}

layer {
  name: "inception_2b/double_3x3_reduce"
  type: "Convolution"
  bottom: "inception_2a/output"
  top: "inception_2b/double_3x3_reduce"
  param {
    lr_mult: 0
    decay_mult: 0
  }
  convolution_param {
    num_output: 128
    bias_term: false
    kernel_size: 1
    stride: 1
    weight_filler {
      type: "xavier"
    }
  }
}

layer {
  name: "inception_2b/double_3x3_reduce_bn"
  type: "BatchNorm"
  bottom: "inception_2b/double_3x3_reduce"
  top: "inception_2b/double_3x3_reduce"
  batch_norm_param {
    use_global_stats: true
  }
}

layer {
  name: "inception_2b/double_3x3_reduce_scale"
  type: "Scale"
  bottom: "inception_2b/double_3x3_reduce"
  top: "inception_2b/double_3x3_reduce"
  scale_param {
    bias_term: true
  }
}

layer {
  name: "inception_2b/relu_double_3x3_reduce"
  type: "ReLU"
  bottom: "inception_2b/double_3x3_reduce"
  top: "inception_2b/double_3x3_reduce"
}

layer {
  name: "inception_2b/double_3x3_1"
  type: "Convolution"
  bottom: "inception_2b/double_3x3_reduce"
  top: "inception_2b/double_3x3_1"
  param {
    lr_mult: 0
    decay_mult: 0
  }
  convolution_param {
    num_output: 128
    bias_term: false
    pad: 1
    kernel_size: 3
    stride: 1
    weight_filler {
      type: "xavier"
    }
  }
}

layer {
  name: "inception_2b/double_3x3_1_bn"
  type: "BatchNorm"
  bottom: "inception_2b/double_3x3_1"
  top: "inception_2b/double_3x3_1"
  batch_norm_param {
    use_global_stats: true
  }
}

layer {
  name: "inception_2b/double_3x3_1_scale"
  type: "Scale"
  bottom: "inception_2b/double_3x3_1"
  top: "inception_2b/double_3x3_1"
  scale_param {
    bias_term: true
  }
}

layer {
  name: "inception_2b/relu_double_3x3_1"
  type: "ReLU"
  bottom: "inception_2b/double_3x3_1"
  top: "inception_2b/double_3x3_1"
}

layer {
  name: "inception_2b/double_3x3_2"
  type: "Convolution"
  bottom: "inception_2b/double_3x3_1"
  top: "inception_2b/double_3x3_2"
  param {
    lr_mult: 0
    decay_mult: 0
  }
  convolution_param {
    num_output: 128
    bias_term: false
    pad: 1
    kernel_size: 3
    stride: 2
    weight_filler {
      type: "xavier"
    }
  }
}

layer {
  name: "inception_2b/double_3x3_2_bn"
  type: "BatchNorm"
  bottom: "inception_2b/double_3x3_2"
  top: "inception_2b/double_3x3_2"
  batch_norm_param {
    use_global_stats: true
  }
}

layer {
  name: "inception_2b/double_3x3_2_scale"
  type: "Scale"
  bottom: "inception_2b/double_3x3_2"
  top: "inception_2b/double_3x3_2"
  scale_param {
    bias_term: true
  }
}

layer {
  name: "inception_2b/relu_double_3x3_2"
  type: "ReLU"
  bottom: "inception_2b/double_3x3_2"
  top: "inception_2b/double_3x3_2"
}

layer {
  name: "inception_2b/pool"
  type: "Pooling"
  bottom: "inception_2a/output"
  top: "inception_2b/pool"
  pooling_param {
    pool: MAX
    kernel_size: 3
    stride: 2
  }
}

layer {
  name: "inception_2b/output"
  type: "Concat"
  bottom: "inception_2b/3x3"
  bottom: "inception_2b/double_3x3_2"
  bottom: "inception_2b/pool"
  top: "inception_2b/output"
}

######################### inception_3a #########################

layer {
  name: "inception_3a/1x1"
  type: "Convolution"
  bottom: "inception_2b/output"
  top: "inception_3a/1x1"
  param {
    lr_mult: 0
    decay_mult: 0
  }
  convolution_param {
    num_output: 256
    bias_term: false
    kernel_size: 1
    stride: 1
    weight_filler {
      type: "xavier"
    }
  }
}

layer {
  name: "inception_3a/1x1_bn"
  type: "BatchNorm"
  bottom: "inception_3a/1x1"
  top: "inception_3a/1x1"
  batch_norm_param {
    use_global_stats: true
  }
}

layer {
  name: "inception_3a/1x1_scale"
  type: "Scale"
  bottom: "inception_3a/1x1"
  top: "inception_3a/1x1"
  scale_param {
    bias_term: true
  }
}

layer {
  name: "inception_3a/relu_1x1"
  type: "ReLU"
  bottom: "inception_3a/1x1"
  top: "inception_3a/1x1"
}

layer {
  name: "inception_3a/3x3_reduce"
  type: "Convolution"
  bottom: "inception_2b/output"
  top: "inception_3a/3x3_reduce"
  param {
    lr_mult: 0
    decay_mult: 0
  }
  convolution_param {
    num_output: 256
    bias_term: false
    kernel_size: 1
    stride: 1
    weight_filler {
      type: "xavier"
    }
  }
}

layer {
  name: "inception_3a/3x3_reduce_bn"
  type: "BatchNorm"
  bottom: "inception_3a/3x3_reduce"
  top: "inception_3a/3x3_reduce"
  batch_norm_param {
    use_global_stats: true
  }
}

layer {
  name: "inception_3a/3x3_reduce_scale"
  type: "Scale"
  bottom: "inception_3a/3x3_reduce"
  top: "inception_3a/3x3_reduce"
  scale_param {
    bias_term: true
  }
}

layer {
  name: "inception_3a/relu_3x3_reduce"
  type: "ReLU"
  bottom: "inception_3a/3x3_reduce"
  top: "inception_3a/3x3_reduce"
}

layer {
  name: "inception_3a/3x3"
  type: "Convolution"
  bottom: "inception_3a/3x3_reduce"
  top: "inception_3a/3x3"
  param {
    lr_mult: 0
    decay_mult: 0
  }
  convolution_param {
    num_output: 256
    bias_term: false
    pad: 1
    kernel_size: 3
    stride: 1
    weight_filler {
      type: "xavier"
    }
  }
}

layer {
  name: "inception_3a/3x3_bn"
  type: "BatchNorm"
  bottom: "inception_3a/3x3"
  top: "inception_3a/3x3"
  batch_norm_param {
    use_global_stats: true
  }
}

layer {
  name: "inception_3a/3x3_scale"
  type: "Scale"
  bottom: "inception_3a/3x3"
  top: "inception_3a/3x3"
  scale_param {
    bias_term: true
  }
}

layer {
  name: "inception_3a/relu_3x3"
  type: "ReLU"
  bottom: "inception_3a/3x3"
  top: "inception_3a/3x3"
}

layer {
  name: "inception_3a/double_3x3_reduce"
  type: "Convolution"
  bottom: "inception_2b/output"
  top: "inception_3a/double_3x3_reduce"
  param {
    lr_mult: 0
    decay_mult: 0
  }
  convolution_param {
    num_output: 256
    bias_term: false
    kernel_size: 1
    stride: 1
    weight_filler {
      type: "xavier"
    }
  }
}

layer {
  name: "inception_3a/double_3x3_reduce_bn"
  type: "BatchNorm"
  bottom: "inception_3a/double_3x3_reduce"
  top: "inception_3a/double_3x3_reduce"
  batch_norm_param {
    use_global_stats: true
  }
}

layer {
  name: "inception_3a/double_3x3_reduce_scale"
  type: "Scale"
  bottom: "inception_3a/double_3x3_reduce"
  top: "inception_3a/double_3x3_reduce"
  scale_param {
    bias_term: true
  }
}

layer {
  name: "inception_3a/relu_double_3x3_reduce"
  type: "ReLU"
  bottom: "inception_3a/double_3x3_reduce"
  top: "inception_3a/double_3x3_reduce"
}

layer {
  name: "inception_3a/double_3x3_1"
  type: "Convolution"
  bottom: "inception_3a/double_3x3_reduce"
  top: "inception_3a/double_3x3_1"
  param {
    lr_mult: 0
    decay_mult: 0
  }
  convolution_param {
    num_output: 256
    bias_term: false
    pad: 1
    kernel_size: 3
    stride: 1
    weight_filler {
      type: "xavier"
    }
  }
}

layer {
  name: "inception_3a/double_3x3_1_bn"
  type: "BatchNorm"
  bottom: "inception_3a/double_3x3_1"
  top: "inception_3a/double_3x3_1"
  batch_norm_param {
    use_global_stats: true
  }
}

layer {
  name: "inception_3a/double_3x3_1_scale"
  type: "Scale"
  bottom: "inception_3a/double_3x3_1"
  top: "inception_3a/double_3x3_1"
  scale_param {
    bias_term: true
  }
}

layer {
  name: "inception_3a/relu_double_3x3_1"
  type: "ReLU"
  bottom: "inception_3a/double_3x3_1"
  top: "inception_3a/double_3x3_1"
}

layer {
  name: "inception_3a/double_3x3_2"
  type: "Convolution"
  bottom: "inception_3a/double_3x3_1"
  top: "inception_3a/double_3x3_2"
  param {
    lr_mult: 0
    decay_mult: 0
  }
  convolution_param {
    num_output: 256
    bias_term: false
    pad: 1
    kernel_size: 3
    stride: 1
    weight_filler {
      type: "xavier"
    }
  }
}

layer {
  name: "inception_3a/double_3x3_2_bn"
  type: "BatchNorm"
  bottom: "inception_3a/double_3x3_2"
  top: "inception_3a/double_3x3_2"
  batch_norm_param {
    use_global_stats: true
  }
}

layer {
  name: "inception_3a/double_3x3_2_scale"
  type: "Scale"
  bottom: "inception_3a/double_3x3_2"
  top: "inception_3a/double_3x3_2"
  scale_param {
    bias_term: true
  }
}

layer {
  name: "inception_3a/relu_double_3x3_2"
  type: "ReLU"
  bottom: "inception_3a/double_3x3_2"
  top: "inception_3a/double_3x3_2"
}

layer {
  name: "inception_3a/pool"
  type: "Pooling"
  bottom: "inception_2b/output"
  top: "inception_3a/pool"
  pooling_param {
    pool: AVE
    kernel_size: 3
    stride: 1
    pad: 1
  }
}

layer {
  name: "inception_3a/pool_proj"
  type: "Convolution"
  bottom: "inception_3a/pool"
  top: "inception_3a/pool_proj"
  param {
    lr_mult: 0
    decay_mult: 0
  }
  convolution_param {
    num_output: 256
    bias_term: false
    kernel_size: 1
    stride: 1
    weight_filler {
      type: "xavier"
    }
  }
}

layer {
  name: "inception_3a/pool_proj_bn"
  type: "BatchNorm"
  bottom: "inception_3a/pool_proj"
  top: "inception_3a/pool_proj"
  batch_norm_param {
    use_global_stats: true
  }
}

layer {
  name: "inception_3a/pool_proj_scale"
  type: "Scale"
  bottom: "inception_3a/pool_proj"
  top: "inception_3a/pool_proj"
  scale_param {
    bias_term: true
  }
}

layer {
  name: "inception_3a/relu_pool_proj"
  type: "ReLU"
  bottom: "inception_3a/pool_proj"
  top: "inception_3a/pool_proj"
}

layer {
  name: "inception_3a/output"
  type: "Concat"
  bottom: "inception_3a/1x1"
  bottom: "inception_3a/3x3"
  bottom: "inception_3a/double_3x3_2"
  bottom: "inception_3a/pool_proj"
  top: "inception_3a/output"
}

######################### inception_3b #########################

layer {
  name: "inception_3b/3x3_reduce"
  type: "Convolution"
  bottom: "inception_3a/output"
  top: "inception_3b/3x3_reduce"
  param {
    lr_mult: 0
    decay_mult: 0
  }
  convolution_param {
    num_output: 256
    bias_term: false
    kernel_size: 1
    stride: 1
    weight_filler {
      type: "xavier"
    }
  }
}

layer {
  name: "inception_3b/3x3_reduce_bn"
  type: "BatchNorm"
  bottom: "inception_3b/3x3_reduce"
  top: "inception_3b/3x3_reduce"
  batch_norm_param {
    use_global_stats: true
  }
}

layer {
  name: "inception_3b/3x3_reduce_scale"
  type: "Scale"
  bottom: "inception_3b/3x3_reduce"
  top: "inception_3b/3x3_reduce"
  scale_param {
    bias_term: true
  }
}

layer {
  name: "inception_3b/relu_3x3_reduce"
  type: "ReLU"
  bottom: "inception_3b/3x3_reduce"
  top: "inception_3b/3x3_reduce"
}

layer {
  name: "inception_3b/3x3"
  type: "Convolution"
  bottom: "inception_3b/3x3_reduce"
  top: "inception_3b/3x3"
  param {
    lr_mult: 0
    decay_mult: 0
  }
  convolution_param {
    num_output: 256
    bias_term: false
    pad: 1
    kernel_size: 3
    stride: 2
    weight_filler {
      type: "xavier"
    }
  }
}

layer {
  name: "inception_3b/3x3_bn"
  type: "BatchNorm"
  bottom: "inception_3b/3x3"
  top: "inception_3b/3x3"
  batch_norm_param {
    use_global_stats: true
  }
}

layer {
  name: "inception_3b/3x3_scale"
  type: "Scale"
  bottom: "inception_3b/3x3"
  top: "inception_3b/3x3"
  scale_param {
    bias_term: true
  }
}

layer {
  name: "inception_3b/relu_3x3"
  type: "ReLU"
  bottom: "inception_3b/3x3"
  top: "inception_3b/3x3"
}

layer {
  name: "inception_3b/double_3x3_reduce"
  type: "Convolution"
  bottom: "inception_3a/output"
  top: "inception_3b/double_3x3_reduce"
  param {
    lr_mult: 0
    decay_mult: 0
  }
  convolution_param {
    num_output: 256
    bias_term: false
    kernel_size: 1
    stride: 1
    weight_filler {
      type: "xavier"
    }
  }
}

layer {
  name: "inception_3b/double_3x3_reduce_bn"
  type: "BatchNorm"
  bottom: "inception_3b/double_3x3_reduce"
  top: "inception_3b/double_3x3_reduce"
  batch_norm_param {
    use_global_stats: true
  }
}

layer {
  name: "inception_3b/double_3x3_reduce_scale"
  type: "Scale"
  bottom: "inception_3b/double_3x3_reduce"
  top: "inception_3b/double_3x3_reduce"
  scale_param {
    bias_term: true
  }
}

layer {
  name: "inception_3b/relu_double_3x3_reduce"
  type: "ReLU"
  bottom: "inception_3b/double_3x3_reduce"
  top: "inception_3b/double_3x3_reduce"
}

layer {
  name: "inception_3b/double_3x3_1"
  type: "Convolution"
  bottom: "inception_3b/double_3x3_reduce"
  top: "inception_3b/double_3x3_1"
  param {
    lr_mult: 0
    decay_mult: 0
  }
  convolution_param {
    num_output: 256
    bias_term: false
    pad: 1
    kernel_size: 3
    stride: 1
    weight_filler {
      type: "xavier"
    }
  }
}

layer {
  name: "inception_3b/double_3x3_1_bn"
  type: "BatchNorm"
  bottom: "inception_3b/double_3x3_1"
  top: "inception_3b/double_3x3_1"
  batch_norm_param {
    use_global_stats: true
  }
}

layer {
  name: "inception_3b/double_3x3_1_scale"
  type: "Scale"
  bottom: "inception_3b/double_3x3_1"
  top: "inception_3b/double_3x3_1"
  scale_param {
    bias_term: true
  }
}

layer {
  name: "inception_3b/relu_double_3x3_1"
  type: "ReLU"
  bottom: "inception_3b/double_3x3_1"
  top: "inception_3b/double_3x3_1"
}

layer {
  name: "inception_3b/double_3x3_2"
  type: "Convolution"
  bottom: "inception_3b/double_3x3_1"
  top: "inception_3b/double_3x3_2"
  param {
    lr_mult: 0
    decay_mult: 0
  }
  convolution_param {
    num_output: 256
    bias_term: false
    pad: 1
    kernel_size: 3
    stride: 2
    weight_filler {
      type: "xavier"
    }
  }
}

layer {
  name: "inception_3b/double_3x3_2_bn"
  type: "BatchNorm"
  bottom: "inception_3b/double_3x3_2"
  top: "inception_3b/double_3x3_2"
  batch_norm_param {
    use_global_stats: true
  }
}

layer {
  name: "inception_3b/double_3x3_2_scale"
  type: "Scale"
  bottom: "inception_3b/double_3x3_2"
  top: "inception_3b/double_3x3_2"
  scale_param {
    bias_term: true
  }
}

layer {
  name: "inception_3b/relu_double_3x3_2"
  type: "ReLU"
  bottom: "inception_3b/double_3x3_2"
  top: "inception_3b/double_3x3_2"
}

layer {
  name: "inception_3b/pool"
  type: "Pooling"
  bottom: "inception_3a/output"
  top: "inception_3b/pool"
  pooling_param {
    pool: MAX
    kernel_size: 3
    stride: 2
  }
}

layer {
  name: "inception_3b/output"
  type: "Concat"
  bottom: "inception_3b/3x3"
  bottom: "inception_3b/double_3x3_2"
  bottom: "inception_3b/pool"
  top: "inception_3b/output"
}

######################### global pool #########################

layer {
  name: "global_pool"
  top: "global_pool"
  bottom: "inception_3b/output"
  type: "Pooling"
  pooling_param {
    pool: AVE
    kernel_h: 6
    kernel_w: 6
    stride: 1
  }
}

######################### fc #########################

layer {
  name: "fc7"
  type: "InnerProduct"
  bottom: "global_pool"
  top: "fc7"
  param {
    lr_mult: 0
    decay_mult: 0
  }
  param {
    lr_mult: 0
    decay_mult: 0
  }
  inner_product_param {
    num_output: 256
    weight_filler {
      type: "gaussian"
      std: 0.001
    }
    bias_filler {
      type: "constant"
      value: 0
    }
  }
}

layer {
  name: "fc7_bn"
  type: "BatchNorm"
  bottom: "fc7"
  top: "fc7"
  batch_norm_param {
    use_global_stats: true
  }
}

layer {
  name: "fc7_scale"
  type: "Scale"
  bottom: "fc7"
  top: "fc7"
  scale_param {
    bias_term: true
  }
}

layer {
  name: "inception_1b/output/head"
  type: "ROIPooling"
  bottom: "inception_1b/output"
  bottom: "headbox"
  top: "inception_1b/output/head"
  roi_pooling_param {
  	pooled_w: 24
    pooled_h: 24
    spatial_scale: 0.25 #(1/4)
  }
}

######################### inception_2a #########################

layer {
  name: "inception_2a/1x1/head"
  type: "Convolution"
  bottom: "inception_1b/output/head"
  top: "inception_2a/1x1/head"
  param {
    lr_mult: 0
    decay_mult: 0
  }
  convolution_param {
    num_output: 128
    bias_term: false
    kernel_size: 1
    stride: 1
    weight_filler {
      type: "xavier"
    }
  }
}

layer {
  name: "inception_2a/1x1_bn/head"
  type: "BatchNorm"
  bottom: "inception_2a/1x1/head"
  top: "inception_2a/1x1/head"
  batch_norm_param {
    use_global_stats: true
  }
}

layer {
  name: "inception_2a/1x1_scale/head"
  type: "Scale"
  bottom: "inception_2a/1x1/head"
  top: "inception_2a/1x1/head"
  scale_param {
    bias_term: true
  }
}

layer {
  name: "inception_2a/relu_1x1/head"
  type: "ReLU"
  bottom: "inception_2a/1x1/head"
  top: "inception_2a/1x1/head"
}

layer {
  name: "inception_2a/3x3_reduce/head"
  type: "Convolution"
  bottom: "inception_1b/output/head"
  top: "inception_2a/3x3_reduce/head"
  param {
    lr_mult: 0
    decay_mult: 0
  }
  convolution_param {
    num_output: 128
    bias_term: false
    kernel_size: 1
    stride: 1
    weight_filler {
      type: "xavier"
    }
  }
}

layer {
  name: "inception_2a/3x3_reduce_bn/head"
  type: "BatchNorm"
  bottom: "inception_2a/3x3_reduce/head"
  top: "inception_2a/3x3_reduce/head"
  batch_norm_param {
    use_global_stats: true
  }
}

layer {
  name: "inception_2a/3x3_reduce_scale/head"
  type: "Scale"
  bottom: "inception_2a/3x3_reduce/head"
  top: "inception_2a/3x3_reduce/head"
  scale_param {
    bias_term: true
  }
}

layer {
  name: "inception_2a/relu_3x3_reduce/head"
  type: "ReLU"
  bottom: "inception_2a/3x3_reduce/head"
  top: "inception_2a/3x3_reduce/head"
}

layer {
  name: "inception_2a/3x3/head"
  type: "Convolution"
  bottom: "inception_2a/3x3_reduce/head"
  top: "inception_2a/3x3/head"
  param {
    lr_mult: 0
    decay_mult: 0
  }
  convolution_param {
    num_output: 128
    bias_term: false
    pad: 1
    kernel_size: 3
    stride: 1
    weight_filler {
      type: "xavier"
    }
  }
}

layer {
  name: "inception_2a/3x3_bn/head"
  type: "BatchNorm"
  bottom: "inception_2a/3x3/head"
  top: "inception_2a/3x3/head"
  batch_norm_param {
    use_global_stats: true
  }
}

layer {
  name: "inception_2a/3x3_scale/head"
  type: "Scale"
  bottom: "inception_2a/3x3/head"
  top: "inception_2a/3x3/head"
  scale_param {
    bias_term: true
  }
}

layer {
  name: "inception_2a/relu_3x3/head"
  type: "ReLU"
  bottom: "inception_2a/3x3/head"
  top: "inception_2a/3x3/head"
}

layer {
  name: "inception_2a/double_3x3_reduce/head"
  type: "Convolution"
  bottom: "inception_1b/output/head"
  top: "inception_2a/double_3x3_reduce/head"
  param {
    lr_mult: 0
    decay_mult: 0
  }
  convolution_param {
    num_output: 128
    bias_term: false
    kernel_size: 1
    stride: 1
    weight_filler {
      type: "xavier"
    }
  }
}

layer {
  name: "inception_2a/double_3x3_reduce_bn/head"
  type: "BatchNorm"
  bottom: "inception_2a/double_3x3_reduce/head"
  top: "inception_2a/double_3x3_reduce/head"
  batch_norm_param {
    use_global_stats: true
  }
}

layer {
  name: "inception_2a/double_3x3_reduce_scale/head"
  type: "Scale"
  bottom: "inception_2a/double_3x3_reduce/head"
  top: "inception_2a/double_3x3_reduce/head"
  scale_param {
    bias_term: true
  }
}

layer {
  name: "inception_2a/relu_double_3x3_reduce/head"
  type: "ReLU"
  bottom: "inception_2a/double_3x3_reduce/head"
  top: "inception_2a/double_3x3_reduce/head"
}

layer {
  name: "inception_2a/double_3x3_1/head"
  type: "Convolution"
  bottom: "inception_2a/double_3x3_reduce/head"
  top: "inception_2a/double_3x3_1/head"
  param {
    lr_mult: 0
    decay_mult: 0
  }
  convolution_param {
    num_output: 128
    bias_term: false
    pad: 1
    kernel_size: 3
    stride: 1
    weight_filler {
      type: "xavier"
    }
  }
}

layer {
  name: "inception_2a/double_3x3_1_bn/head"
  type: "BatchNorm"
  bottom: "inception_2a/double_3x3_1/head"
  top: "inception_2a/double_3x3_1/head"
  batch_norm_param {
    use_global_stats: true
  }
}

layer {
  name: "inception_2a/double_3x3_1_scale/head"
  type: "Scale"
  bottom: "inception_2a/double_3x3_1/head"
  top: "inception_2a/double_3x3_1/head"
  scale_param {
    bias_term: true
  }
}

layer {
  name: "inception_2a/relu_double_3x3_1/head"
  type: "ReLU"
  bottom: "inception_2a/double_3x3_1/head"
  top: "inception_2a/double_3x3_1/head"
}

layer {
  name: "inception_2a/double_3x3_2/head"
  type: "Convolution"
  bottom: "inception_2a/double_3x3_1/head"
  top: "inception_2a/double_3x3_2/head"
  param {
    lr_mult: 0
    decay_mult: 0
  }
  convolution_param {
    num_output: 128
    bias_term: false
    pad: 1
    kernel_size: 3
    stride: 1
    weight_filler {
      type: "xavier"
    }
  }
}

layer {
  name: "inception_2a/double_3x3_2_bn/head"
  type: "BatchNorm"
  bottom: "inception_2a/double_3x3_2/head"
  top: "inception_2a/double_3x3_2/head"
  batch_norm_param {
    use_global_stats: true
  }
}

layer {
  name: "inception_2a/double_3x3_2_scale/head"
  type: "Scale"
  bottom: "inception_2a/double_3x3_2/head"
  top: "inception_2a/double_3x3_2/head"
  scale_param {
    bias_term: true
  }
}

layer {
  name: "inception_2a/relu_double_3x3_2/head"
  type: "ReLU"
  bottom: "inception_2a/double_3x3_2/head"
  top: "inception_2a/double_3x3_2/head"
}

layer {
  name: "inception_2a/pool/head"
  type: "Pooling"
  bottom: "inception_1b/output/head"
  top: "inception_2a/pool/head"
  pooling_param {
    pool: AVE
    kernel_size: 3
    stride: 1
    pad: 1
  }
}

layer {
  name: "inception_2a/pool_proj/head"
  type: "Convolution"
  bottom: "inception_2a/pool/head"
  top: "inception_2a/pool_proj/head"
  param {
    lr_mult: 0
    decay_mult: 0
  }
  convolution_param {
    num_output: 128
    bias_term: false
    kernel_size: 1
    stride: 1
    weight_filler {
      type: "xavier"
    }
  }
}

layer {
  name: "inception_2a/pool_proj_bn/head"
  type: "BatchNorm"
  bottom: "inception_2a/pool_proj/head"
  top: "inception_2a/pool_proj/head"
  batch_norm_param {
    use_global_stats: true
  }
}

layer {
  name: "inception_2a/pool_proj_scale/head"
  type: "Scale"
  bottom: "inception_2a/pool_proj/head"
  top: "inception_2a/pool_proj/head"
  scale_param {
    bias_term: true
  }
}

layer {
  name: "inception_2a/relu_pool_proj/head"
  type: "ReLU"
  bottom: "inception_2a/pool_proj/head"
  top: "inception_2a/pool_proj/head"
}

layer {
  name: "inception_2a/output/head"
  type: "Concat"
  bottom: "inception_2a/1x1/head"
  bottom: "inception_2a/3x3/head"
  bottom: "inception_2a/double_3x3_2/head"
  bottom: "inception_2a/pool_proj/head"
  top: "inception_2a/output/head"
}

########################### inception_2b #########################

layer {
  name: "inception_2b/3x3_reduce/head"
  type: "Convolution"
  bottom: "inception_2a/output/head"
  top: "inception_2b/3x3_reduce/head"
  param {
    lr_mult: 0
    decay_mult: 0
  }
  convolution_param {
    num_output: 128
    bias_term: false
    kernel_size: 1
    stride: 1
    weight_filler {
      type: "xavier"
    }
  }
}

layer {
  name: "inception_2b/3x3_reduce_bn/head"
  type: "BatchNorm"
  bottom: "inception_2b/3x3_reduce/head"
  top: "inception_2b/3x3_reduce/head"
  batch_norm_param {
    use_global_stats: true
  }
}

layer {
  name: "inception_2b/3x3_reduce_scale/head"
  type: "Scale"
  bottom: "inception_2b/3x3_reduce/head"
  top: "inception_2b/3x3_reduce/head"
  scale_param {
    bias_term: true
  }
}

layer {
  name: "inception_2b/relu_3x3_reduce/head"
  type: "ReLU"
  bottom: "inception_2b/3x3_reduce/head"
  top: "inception_2b/3x3_reduce/head"
}

layer {
  name: "inception_2b/3x3/head"
  type: "Convolution"
  bottom: "inception_2b/3x3_reduce/head"
  top: "inception_2b/3x3/head"
  param {
    lr_mult: 0
    decay_mult: 0
  }
  convolution_param {
    num_output: 128
    bias_term: false
    pad: 1
    kernel_size: 3
    stride: 2
    weight_filler {
      type: "xavier"
    }
  }
}

layer {
  name: "inception_2b/3x3_bn/head"
  type: "BatchNorm"
  bottom: "inception_2b/3x3/head"
  top: "inception_2b/3x3/head"
  batch_norm_param {
    use_global_stats: true
  }
}

layer {
  name: "inception_2b/3x3_scale/head"
  type: "Scale"
  bottom: "inception_2b/3x3/head"
  top: "inception_2b/3x3/head"
  scale_param {
    bias_term: true
  }
}

layer {
  name: "inception_2b/relu_3x3/head"
  type: "ReLU"
  bottom: "inception_2b/3x3/head"
  top: "inception_2b/3x3/head"
}

layer {
  name: "inception_2b/double_3x3_reduce/head"
  type: "Convolution"
  bottom: "inception_2a/output/head"
  top: "inception_2b/double_3x3_reduce/head"
  param {
    lr_mult: 0
    decay_mult: 0
  }
  convolution_param {
    num_output: 128
    bias_term: false
    kernel_size: 1
    stride: 1
    weight_filler {
      type: "xavier"
    }
  }
}

layer {
  name: "inception_2b/double_3x3_reduce_bn/head"
  type: "BatchNorm"
  bottom: "inception_2b/double_3x3_reduce/head"
  top: "inception_2b/double_3x3_reduce/head"
  batch_norm_param {
    use_global_stats: true
  }
}

layer {
  name: "inception_2b/double_3x3_reduce_scale/head"
  type: "Scale"
  bottom: "inception_2b/double_3x3_reduce/head"
  top: "inception_2b/double_3x3_reduce/head"
  scale_param {
    bias_term: true
  }
}

layer {
  name: "inception_2b/relu_double_3x3_reduce/head"
  type: "ReLU"
  bottom: "inception_2b/double_3x3_reduce/head"
  top: "inception_2b/double_3x3_reduce/head"
}

layer {
  name: "inception_2b/double_3x3_1/head"
  type: "Convolution"
  bottom: "inception_2b/double_3x3_reduce/head"
  top: "inception_2b/double_3x3_1/head"
  param {
    lr_mult: 0
    decay_mult: 0
  }
  convolution_param {
    num_output: 128
    bias_term: false
    pad: 1
    kernel_size: 3
    stride: 1
    weight_filler {
      type: "xavier"
    }
  }
}

layer {
  name: "inception_2b/double_3x3_1_bn/head"
  type: "BatchNorm"
  bottom: "inception_2b/double_3x3_1/head"
  top: "inception_2b/double_3x3_1/head"
  batch_norm_param {
    use_global_stats: true
  }
}

layer {
  name: "inception_2b/double_3x3_1_scale/head"
  type: "Scale"
  bottom: "inception_2b/double_3x3_1/head"
  top: "inception_2b/double_3x3_1/head"
  scale_param {
    bias_term: true
  }
}

layer {
  name: "inception_2b/relu_double_3x3_1/head"
  type: "ReLU"
  bottom: "inception_2b/double_3x3_1/head"
  top: "inception_2b/double_3x3_1/head"
}

layer {
  name: "inception_2b/double_3x3_2/head"
  type: "Convolution"
  bottom: "inception_2b/double_3x3_1/head"
  top: "inception_2b/double_3x3_2/head"
  param {
    lr_mult: 0
    decay_mult: 0
  }
  convolution_param {
    num_output: 128
    bias_term: false
    pad: 1
    kernel_size: 3
    stride: 2
    weight_filler {
      type: "xavier"
    }
  }
}

layer {
  name: "inception_2b/double_3x3_2_bn/head"
  type: "BatchNorm"
  bottom: "inception_2b/double_3x3_2/head"
  top: "inception_2b/double_3x3_2/head"
  batch_norm_param {
    use_global_stats: true
  }
}

layer {
  name: "inception_2b/double_3x3_2_scale/head"
  type: "Scale"
  bottom: "inception_2b/double_3x3_2/head"
  top: "inception_2b/double_3x3_2/head"
  scale_param {
    bias_term: true
  }
}

layer {
  name: "inception_2b/relu_double_3x3_2/head"
  type: "ReLU"
  bottom: "inception_2b/double_3x3_2/head"
  top: "inception_2b/double_3x3_2/head"
}

layer {
  name: "inception_2b/pool/head"
  type: "Pooling"
  bottom: "inception_2a/output/head"
  top: "inception_2b/pool/head"
  pooling_param {
    pool: MAX
    kernel_size: 3
    stride: 2
  }
}

layer {
  name: "inception_2b/output/head"
  type: "Concat"
  bottom: "inception_2b/3x3/head"
  bottom: "inception_2b/double_3x3_2/head"
  bottom: "inception_2b/pool/head"
  top: "inception_2b/output/head"
}

######################### inception_3a #########################

layer {
  name: "inception_3a/1x1/head"
  type: "Convolution"
  bottom: "inception_2b/output/head"
  top: "inception_3a/1x1/head"
  param {
    lr_mult: 0
    decay_mult: 0
  }
  convolution_param {
    num_output: 256
    bias_term: false
    kernel_size: 1
    stride: 1
    weight_filler {
      type: "xavier"
    }
  }
}

layer {
  name: "inception_3a/1x1_bn/head"
  type: "BatchNorm"
  bottom: "inception_3a/1x1/head"
  top: "inception_3a/1x1/head"
  batch_norm_param {
    use_global_stats: true
  }
}

layer {
  name: "inception_3a/1x1_scale/head"
  type: "Scale"
  bottom: "inception_3a/1x1/head"
  top: "inception_3a/1x1/head"
  scale_param {
    bias_term: true
  }
}

layer {
  name: "inception_3a/relu_1x1/head"
  type: "ReLU"
  bottom: "inception_3a/1x1/head"
  top: "inception_3a/1x1/head"
}

layer {
  name: "inception_3a/3x3_reduce/head"
  type: "Convolution"
  bottom: "inception_2b/output/head"
  top: "inception_3a/3x3_reduce/head"
  param {
    lr_mult: 0
    decay_mult: 0
  }
  convolution_param {
    num_output: 256
    bias_term: false
    kernel_size: 1
    stride: 1
    weight_filler {
      type: "xavier"
    }
  }
}

layer {
  name: "inception_3a/3x3_reduce_bn/head"
  type: "BatchNorm"
  bottom: "inception_3a/3x3_reduce/head"
  top: "inception_3a/3x3_reduce/head"
  batch_norm_param {
    use_global_stats: true
  }
}

layer {
  name: "inception_3a/3x3_reduce_scale/head"
  type: "Scale"
  bottom: "inception_3a/3x3_reduce/head"
  top: "inception_3a/3x3_reduce/head"
  scale_param {
    bias_term: true
  }
}

layer {
  name: "inception_3a/relu_3x3_reduce/head"
  type: "ReLU"
  bottom: "inception_3a/3x3_reduce/head"
  top: "inception_3a/3x3_reduce/head"
}

layer {
  name: "inception_3a/3x3/head"
  type: "Convolution"
  bottom: "inception_3a/3x3_reduce/head"
  top: "inception_3a/3x3/head"
  param {
    lr_mult: 0
    decay_mult: 0
  }
  convolution_param {
    num_output: 256
    bias_term: false
    pad: 1
    kernel_size: 3
    stride: 1
    weight_filler {
      type: "xavier"
    }
  }
}

layer {
  name: "inception_3a/3x3_bn/head"
  type: "BatchNorm"
  bottom: "inception_3a/3x3/head"
  top: "inception_3a/3x3/head"
  batch_norm_param {
    use_global_stats: true
  }
}

layer {
  name: "inception_3a/3x3_scale/head"
  type: "Scale"
  bottom: "inception_3a/3x3/head"
  top: "inception_3a/3x3/head"
  scale_param {
    bias_term: true
  }
}

layer {
  name: "inception_3a/relu_3x3/head"
  type: "ReLU"
  bottom: "inception_3a/3x3/head"
  top: "inception_3a/3x3/head"
}

layer {
  name: "inception_3a/double_3x3_reduce/head"
  type: "Convolution"
  bottom: "inception_2b/output/head"
  top: "inception_3a/double_3x3_reduce/head"
  param {
    lr_mult: 0
    decay_mult: 0
  }
  convolution_param {
    num_output: 256
    bias_term: false
    kernel_size: 1
    stride: 1
    weight_filler {
      type: "xavier"
    }
  }
}

layer {
  name: "inception_3a/double_3x3_reduce_bn/head"
  type: "BatchNorm"
  bottom: "inception_3a/double_3x3_reduce/head"
  top: "inception_3a/double_3x3_reduce/head"
  batch_norm_param {
    use_global_stats: true
  }
}

layer {
  name: "inception_3a/double_3x3_reduce_scale/head"
  type: "Scale"
  bottom: "inception_3a/double_3x3_reduce/head"
  top: "inception_3a/double_3x3_reduce/head"
  scale_param {
    bias_term: true
  }
}

layer {
  name: "inception_3a/relu_double_3x3_reduce/head"
  type: "ReLU"
  bottom: "inception_3a/double_3x3_reduce/head"
  top: "inception_3a/double_3x3_reduce/head"
}

layer {
  name: "inception_3a/double_3x3_1/head"
  type: "Convolution"
  bottom: "inception_3a/double_3x3_reduce/head"
  top: "inception_3a/double_3x3_1/head"
  param {
    lr_mult: 0
    decay_mult: 0
  }
  convolution_param {
    num_output: 256
    bias_term: false
    pad: 1
    kernel_size: 3
    stride: 1
    weight_filler {
      type: "xavier"
    }
  }
}

layer {
  name: "inception_3a/double_3x3_1_bn/head"
  type: "BatchNorm"
  bottom: "inception_3a/double_3x3_1/head"
  top: "inception_3a/double_3x3_1/head"
  batch_norm_param {
    use_global_stats: true
  }
}

layer {
  name: "inception_3a/double_3x3_1_scale/head"
  type: "Scale"
  bottom: "inception_3a/double_3x3_1/head"
  top: "inception_3a/double_3x3_1/head"
  scale_param {
    bias_term: true
  }
}

layer {
  name: "inception_3a/relu_double_3x3_1/head"
  type: "ReLU"
  bottom: "inception_3a/double_3x3_1/head"
  top: "inception_3a/double_3x3_1/head"
}

layer {
  name: "inception_3a/double_3x3_2/head"
  type: "Convolution"
  bottom: "inception_3a/double_3x3_1/head"
  top: "inception_3a/double_3x3_2/head"
  param {
    lr_mult: 0
    decay_mult: 0
  }
  convolution_param {
    num_output: 256
    bias_term: false
    pad: 1
    kernel_size: 3
    stride: 1
    weight_filler {
      type: "xavier"
    }
  }
}

layer {
  name: "inception_3a/double_3x3_2_bn/head"
  type: "BatchNorm"
  bottom: "inception_3a/double_3x3_2/head"
  top: "inception_3a/double_3x3_2/head"
  batch_norm_param {
    use_global_stats: true
  }
}

layer {
  name: "inception_3a/double_3x3_2_scale/head"
  type: "Scale"
  bottom: "inception_3a/double_3x3_2/head"
  top: "inception_3a/double_3x3_2/head"
  scale_param {
    bias_term: true
  }
}

layer {
  name: "inception_3a/relu_double_3x3_2/head"
  type: "ReLU"
  bottom: "inception_3a/double_3x3_2/head"
  top: "inception_3a/double_3x3_2/head"
}

layer {
  name: "inception_3a/pool/head"
  type: "Pooling"
  bottom: "inception_2b/output/head"
  top: "inception_3a/pool/head"
  pooling_param {
    pool: AVE
    kernel_size: 3
    stride: 1
    pad: 1
  }
}

layer {
  name: "inception_3a/pool_proj/head"
  type: "Convolution"
  bottom: "inception_3a/pool/head"
  top: "inception_3a/pool_proj/head"
  param {
    lr_mult: 0
    decay_mult: 0
  }
  convolution_param {
    num_output: 256
    bias_term: false
    kernel_size: 1
    stride: 1
    weight_filler {
      type: "xavier"
    }
  }
}

layer {
  name: "inception_3a/pool_proj_bn/head"
  type: "BatchNorm"
  bottom: "inception_3a/pool_proj/head"
  top: "inception_3a/pool_proj/head"
  batch_norm_param {
    use_global_stats: true
  }
}

layer {
  name: "inception_3a/pool_proj_scale/head"
  type: "Scale"
  bottom: "inception_3a/pool_proj/head"
  top: "inception_3a/pool_proj/head"
  scale_param {
    bias_term: true
  }
}

layer {
  name: "inception_3a/relu_pool_proj/head"
  type: "ReLU"
  bottom: "inception_3a/pool_proj/head"
  top: "inception_3a/pool_proj/head"
}

layer {
  name: "inception_3a/output/head"
  type: "Concat"
  bottom: "inception_3a/1x1/head"
  bottom: "inception_3a/3x3/head"
  bottom: "inception_3a/double_3x3_2/head"
  bottom: "inception_3a/pool_proj/head"
  top: "inception_3a/output/head"
}

######################### inception_3b #########################

layer {
  name: "inception_3b/3x3_reduce/head"
  type: "Convolution"
  bottom: "inception_3a/output/head"
  top: "inception_3b/3x3_reduce/head"
  param {
    lr_mult: 0
    decay_mult: 0
  }
  convolution_param {
    num_output: 256
    bias_term: false
    kernel_size: 1
    stride: 1
    weight_filler {
      type: "xavier"
    }
  }
}

layer {
  name: "inception_3b/3x3_reduce_bn/head"
  type: "BatchNorm"
  bottom: "inception_3b/3x3_reduce/head"
  top: "inception_3b/3x3_reduce/head"
  batch_norm_param {
    use_global_stats: true
  }
}

layer {
  name: "inception_3b/3x3_reduce_scale/head"
  type: "Scale"
  bottom: "inception_3b/3x3_reduce/head"
  top: "inception_3b/3x3_reduce/head"
  scale_param {
    bias_term: true
  }
}

layer {
  name: "inception_3b/relu_3x3_reduce/head"
  type: "ReLU"
  bottom: "inception_3b/3x3_reduce/head"
  top: "inception_3b/3x3_reduce/head"
}

layer {
  name: "inception_3b/3x3/head"
  type: "Convolution"
  bottom: "inception_3b/3x3_reduce/head"
  top: "inception_3b/3x3/head"
  param {
    lr_mult: 0
    decay_mult: 0
  }
  convolution_param {
    num_output: 256
    bias_term: false
    pad: 1
    kernel_size: 3
    stride: 2
    weight_filler {
      type: "xavier"
    }
  }
}

layer {
  name: "inception_3b/3x3_bn/head"
  type: "BatchNorm"
  bottom: "inception_3b/3x3/head"
  top: "inception_3b/3x3/head"
  batch_norm_param {
    use_global_stats: true
  }
}

layer {
  name: "inception_3b/3x3_scale/head"
  type: "Scale"
  bottom: "inception_3b/3x3/head"
  top: "inception_3b/3x3/head"
  scale_param {
    bias_term: true
  }
}

layer {
  name: "inception_3b/relu_3x3/head"
  type: "ReLU"
  bottom: "inception_3b/3x3/head"
  top: "inception_3b/3x3/head"
}

layer {
  name: "inception_3b/double_3x3_reduce/head"
  type: "Convolution"
  bottom: "inception_3a/output/head"
  top: "inception_3b/double_3x3_reduce/head"
  param {
    lr_mult: 0
    decay_mult: 0
  }
  convolution_param {
    num_output: 256
    bias_term: false
    kernel_size: 1
    stride: 1
    weight_filler {
      type: "xavier"
    }
  }
}

layer {
  name: "inception_3b/double_3x3_reduce_bn/head"
  type: "BatchNorm"
  bottom: "inception_3b/double_3x3_reduce/head"
  top: "inception_3b/double_3x3_reduce/head"
  batch_norm_param {
    use_global_stats: true
  }
}

layer {
  name: "inception_3b/double_3x3_reduce_scale/head"
  type: "Scale"
  bottom: "inception_3b/double_3x3_reduce/head"
  top: "inception_3b/double_3x3_reduce/head"
  scale_param {
    bias_term: true
  }
}

layer {
  name: "inception_3b/relu_double_3x3_reduce/head"
  type: "ReLU"
  bottom: "inception_3b/double_3x3_reduce/head"
  top: "inception_3b/double_3x3_reduce/head"
}

layer {
  name: "inception_3b/double_3x3_1/head"
  type: "Convolution"
  bottom: "inception_3b/double_3x3_reduce/head"
  top: "inception_3b/double_3x3_1/head"
  param {
    lr_mult: 0
    decay_mult: 0
  }
  convolution_param {
    num_output: 256
    bias_term: false
    pad: 1
    kernel_size: 3
    stride: 1
    weight_filler {
      type: "xavier"
    }
  }
}

layer {
  name: "inception_3b/double_3x3_1_bn/head"
  type: "BatchNorm"
  bottom: "inception_3b/double_3x3_1/head"
  top: "inception_3b/double_3x3_1/head"
  batch_norm_param {
    use_global_stats: true
  }
}

layer {
  name: "inception_3b/double_3x3_1_scale/head"
  type: "Scale"
  bottom: "inception_3b/double_3x3_1/head"
  top: "inception_3b/double_3x3_1/head"
  scale_param {
    bias_term: true
  }
}

layer {
  name: "inception_3b/relu_double_3x3_1/head"
  type: "ReLU"
  bottom: "inception_3b/double_3x3_1/head"
  top: "inception_3b/double_3x3_1/head"
}

layer {
  name: "inception_3b/double_3x3_2/head"
  type: "Convolution"
  bottom: "inception_3b/double_3x3_1/head"
  top: "inception_3b/double_3x3_2/head"
  param {
    lr_mult: 0
    decay_mult: 0
  }
  convolution_param {
    num_output: 256
    bias_term: false
    pad: 1
    kernel_size: 3
    stride: 2
    weight_filler {
      type: "xavier"
    }
  }
}

layer {
  name: "inception_3b/double_3x3_2_bn/head"
  type: "BatchNorm"
  bottom: "inception_3b/double_3x3_2/head"
  top: "inception_3b/double_3x3_2/head"
  batch_norm_param {
    use_global_stats: true
  }
}

layer {
  name: "inception_3b/double_3x3_2_scale/head"
  type: "Scale"
  bottom: "inception_3b/double_3x3_2/head"
  top: "inception_3b/double_3x3_2/head"
  scale_param {
    bias_term: true
  }
}

layer {
  name: "inception_3b/relu_double_3x3_2/head"
  type: "ReLU"
  bottom: "inception_3b/double_3x3_2/head"
  top: "inception_3b/double_3x3_2/head"
}

layer {
  name: "inception_3b/pool/head"
  type: "Pooling"
  bottom: "inception_3a/output/head"
  top: "inception_3b/pool/head"
  pooling_param {
    pool: MAX
    kernel_size: 3
    stride: 2
  }
}

layer {
  name: "inception_3b/output/head"
  type: "Concat"
  bottom: "inception_3b/3x3/head"
  bottom: "inception_3b/double_3x3_2/head"
  bottom: "inception_3b/pool/head"
  top: "inception_3b/output/head"
}

######################### global pool #########################

layer {
  name: "global_pool/head"
  top: "global_pool/head"
  bottom: "inception_3b/output/head"
  type: "Pooling"
  pooling_param {
    pool: AVE
    kernel_h: 6
    kernel_w: 6
    stride: 1
  }
}

######################### fc #########################

layer {
  name: "fc7/head"
  type: "InnerProduct"
  bottom: "global_pool/head"
  top: "fc7/head"
  param {
    lr_mult: 0
    decay_mult: 0
  }
  param {
    lr_mult: 0
    decay_mult: 0
  }
  inner_product_param {
    num_output: 256
    weight_filler {
      type: "gaussian"
      std: 0.001
    }
    bias_filler {
      type: "constant"
      value: 0
    }
  }
}

layer {
  name: "fc7_bn/head"
  type: "BatchNorm"
  bottom: "fc7/head"
  top: "fc7/head"
  batch_norm_param {
    use_global_stats: true
  }
}

layer {
  name: "fc7_scale/head"
  type: "Scale"
  bottom: "fc7/head"
  top: "fc7/head"
  scale_param {
    bias_term: true
  }
}

layer {
  name: "inception_1b/output/body"
  type: "ROIPooling"
  bottom: "inception_1b/output"
  bottom: "bodybox"
  top: "inception_1b/output/body"
  roi_pooling_param {
  	pooled_w: 24
    pooled_h: 24
    spatial_scale: 0.25 #(1/4)
  }
}

######################### inception_2a #########################

layer {
  name: "inception_2a/1x1/body"
  type: "Convolution"
  bottom: "inception_1b/output/body"
  top: "inception_2a/1x1/body"
  param {
    lr_mult: 0
    decay_mult: 0
  }
  convolution_param {
    num_output: 128
    bias_term: false
    kernel_size: 1
    stride: 1
    weight_filler {
      type: "xavier"
    }
  }
}

layer {
  name: "inception_2a/1x1_bn/body"
  type: "BatchNorm"
  bottom: "inception_2a/1x1/body"
  top: "inception_2a/1x1/body"
  batch_norm_param {
    use_global_stats: true
  }
}

layer {
  name: "inception_2a/1x1_scale/body"
  type: "Scale"
  bottom: "inception_2a/1x1/body"
  top: "inception_2a/1x1/body"
  scale_param {
    bias_term: true
  }
}

layer {
  name: "inception_2a/relu_1x1/body"
  type: "ReLU"
  bottom: "inception_2a/1x1/body"
  top: "inception_2a/1x1/body"
}

layer {
  name: "inception_2a/3x3_reduce/body"
  type: "Convolution"
  bottom: "inception_1b/output/body"
  top: "inception_2a/3x3_reduce/body"
  param {
    lr_mult: 0
    decay_mult: 0
  }
  convolution_param {
    num_output: 128
    bias_term: false
    kernel_size: 1
    stride: 1
    weight_filler {
      type: "xavier"
    }
  }
}

layer {
  name: "inception_2a/3x3_reduce_bn/body"
  type: "BatchNorm"
  bottom: "inception_2a/3x3_reduce/body"
  top: "inception_2a/3x3_reduce/body"
  batch_norm_param {
    use_global_stats: true
  }
}

layer {
  name: "inception_2a/3x3_reduce_scale/body"
  type: "Scale"
  bottom: "inception_2a/3x3_reduce/body"
  top: "inception_2a/3x3_reduce/body"
  scale_param {
    bias_term: true
  }
}

layer {
  name: "inception_2a/relu_3x3_reduce/body"
  type: "ReLU"
  bottom: "inception_2a/3x3_reduce/body"
  top: "inception_2a/3x3_reduce/body"
}

layer {
  name: "inception_2a/3x3/body"
  type: "Convolution"
  bottom: "inception_2a/3x3_reduce/body"
  top: "inception_2a/3x3/body"
  param {
    lr_mult: 0
    decay_mult: 0
  }
  convolution_param {
    num_output: 128
    bias_term: false
    pad: 1
    kernel_size: 3
    stride: 1
    weight_filler {
      type: "xavier"
    }
  }
}

layer {
  name: "inception_2a/3x3_bn/body"
  type: "BatchNorm"
  bottom: "inception_2a/3x3/body"
  top: "inception_2a/3x3/body"
  batch_norm_param {
    use_global_stats: true
  }
}

layer {
  name: "inception_2a/3x3_scale/body"
  type: "Scale"
  bottom: "inception_2a/3x3/body"
  top: "inception_2a/3x3/body"
  scale_param {
    bias_term: true
  }
}

layer {
  name: "inception_2a/relu_3x3/body"
  type: "ReLU"
  bottom: "inception_2a/3x3/body"
  top: "inception_2a/3x3/body"
}

layer {
  name: "inception_2a/double_3x3_reduce/body"
  type: "Convolution"
  bottom: "inception_1b/output/body"
  top: "inception_2a/double_3x3_reduce/body"
  param {
    lr_mult: 0
    decay_mult: 0
  }
  convolution_param {
    num_output: 128
    bias_term: false
    kernel_size: 1
    stride: 1
    weight_filler {
      type: "xavier"
    }
  }
}

layer {
  name: "inception_2a/double_3x3_reduce_bn/body"
  type: "BatchNorm"
  bottom: "inception_2a/double_3x3_reduce/body"
  top: "inception_2a/double_3x3_reduce/body"
  batch_norm_param {
    use_global_stats: true
  }
}

layer {
  name: "inception_2a/double_3x3_reduce_scale/body"
  type: "Scale"
  bottom: "inception_2a/double_3x3_reduce/body"
  top: "inception_2a/double_3x3_reduce/body"
  scale_param {
    bias_term: true
  }
}

layer {
  name: "inception_2a/relu_double_3x3_reduce/body"
  type: "ReLU"
  bottom: "inception_2a/double_3x3_reduce/body"
  top: "inception_2a/double_3x3_reduce/body"
}

layer {
  name: "inception_2a/double_3x3_1/body"
  type: "Convolution"
  bottom: "inception_2a/double_3x3_reduce/body"
  top: "inception_2a/double_3x3_1/body"
  param {
    lr_mult: 0
    decay_mult: 0
  }
  convolution_param {
    num_output: 128
    bias_term: false
    pad: 1
    kernel_size: 3
    stride: 1
    weight_filler {
      type: "xavier"
    }
  }
}

layer {
  name: "inception_2a/double_3x3_1_bn/body"
  type: "BatchNorm"
  bottom: "inception_2a/double_3x3_1/body"
  top: "inception_2a/double_3x3_1/body"
  batch_norm_param {
    use_global_stats: true
  }
}

layer {
  name: "inception_2a/double_3x3_1_scale/body"
  type: "Scale"
  bottom: "inception_2a/double_3x3_1/body"
  top: "inception_2a/double_3x3_1/body"
  scale_param {
    bias_term: true
  }
}

layer {
  name: "inception_2a/relu_double_3x3_1/body"
  type: "ReLU"
  bottom: "inception_2a/double_3x3_1/body"
  top: "inception_2a/double_3x3_1/body"
}

layer {
  name: "inception_2a/double_3x3_2/body"
  type: "Convolution"
  bottom: "inception_2a/double_3x3_1/body"
  top: "inception_2a/double_3x3_2/body"
  param {
    lr_mult: 0
    decay_mult: 0
  }
  convolution_param {
    num_output: 128
    bias_term: false
    pad: 1
    kernel_size: 3
    stride: 1
    weight_filler {
      type: "xavier"
    }
  }
}

layer {
  name: "inception_2a/double_3x3_2_bn/body"
  type: "BatchNorm"
  bottom: "inception_2a/double_3x3_2/body"
  top: "inception_2a/double_3x3_2/body"
  batch_norm_param {
    use_global_stats: true
  }
}

layer {
  name: "inception_2a/double_3x3_2_scale/body"
  type: "Scale"
  bottom: "inception_2a/double_3x3_2/body"
  top: "inception_2a/double_3x3_2/body"
  scale_param {
    bias_term: true
  }
}

layer {
  name: "inception_2a/relu_double_3x3_2/body"
  type: "ReLU"
  bottom: "inception_2a/double_3x3_2/body"
  top: "inception_2a/double_3x3_2/body"
}

layer {
  name: "inception_2a/pool/body"
  type: "Pooling"
  bottom: "inception_1b/output/body"
  top: "inception_2a/pool/body"
  pooling_param {
    pool: AVE
    kernel_size: 3
    stride: 1
    pad: 1
  }
}

layer {
  name: "inception_2a/pool_proj/body"
  type: "Convolution"
  bottom: "inception_2a/pool/body"
  top: "inception_2a/pool_proj/body"
  param {
    lr_mult: 0
    decay_mult: 0
  }
  convolution_param {
    num_output: 128
    bias_term: false
    kernel_size: 1
    stride: 1
    weight_filler {
      type: "xavier"
    }
  }
}

layer {
  name: "inception_2a/pool_proj_bn/body"
  type: "BatchNorm"
  bottom: "inception_2a/pool_proj/body"
  top: "inception_2a/pool_proj/body"
  batch_norm_param {
    use_global_stats: true
  }
}

layer {
  name: "inception_2a/pool_proj_scale/body"
  type: "Scale"
  bottom: "inception_2a/pool_proj/body"
  top: "inception_2a/pool_proj/body"
  scale_param {
    bias_term: true
  }
}

layer {
  name: "inception_2a/relu_pool_proj/body"
  type: "ReLU"
  bottom: "inception_2a/pool_proj/body"
  top: "inception_2a/pool_proj/body"
}

layer {
  name: "inception_2a/output/body"
  type: "Concat"
  bottom: "inception_2a/1x1/body"
  bottom: "inception_2a/3x3/body"
  bottom: "inception_2a/double_3x3_2/body"
  bottom: "inception_2a/pool_proj/body"
  top: "inception_2a/output/body"
}

########################### inception_2b #########################

layer {
  name: "inception_2b/3x3_reduce/body"
  type: "Convolution"
  bottom: "inception_2a/output/body"
  top: "inception_2b/3x3_reduce/body"
  param {
    lr_mult: 0
    decay_mult: 0
  }
  convolution_param {
    num_output: 128
    bias_term: false
    kernel_size: 1
    stride: 1
    weight_filler {
      type: "xavier"
    }
  }
}

layer {
  name: "inception_2b/3x3_reduce_bn/body"
  type: "BatchNorm"
  bottom: "inception_2b/3x3_reduce/body"
  top: "inception_2b/3x3_reduce/body"
  batch_norm_param {
    use_global_stats: true
  }
}

layer {
  name: "inception_2b/3x3_reduce_scale/body"
  type: "Scale"
  bottom: "inception_2b/3x3_reduce/body"
  top: "inception_2b/3x3_reduce/body"
  scale_param {
    bias_term: true
  }
}

layer {
  name: "inception_2b/relu_3x3_reduce/body"
  type: "ReLU"
  bottom: "inception_2b/3x3_reduce/body"
  top: "inception_2b/3x3_reduce/body"
}

layer {
  name: "inception_2b/3x3/body"
  type: "Convolution"
  bottom: "inception_2b/3x3_reduce/body"
  top: "inception_2b/3x3/body"
  param {
    lr_mult: 0
    decay_mult: 0
  }
  convolution_param {
    num_output: 128
    bias_term: false
    pad: 1
    kernel_size: 3
    stride: 2
    weight_filler {
      type: "xavier"
    }
  }
}

layer {
  name: "inception_2b/3x3_bn/body"
  type: "BatchNorm"
  bottom: "inception_2b/3x3/body"
  top: "inception_2b/3x3/body"
  batch_norm_param {
    use_global_stats: true
  }
}

layer {
  name: "inception_2b/3x3_scale/body"
  type: "Scale"
  bottom: "inception_2b/3x3/body"
  top: "inception_2b/3x3/body"
  scale_param {
    bias_term: true
  }
}

layer {
  name: "inception_2b/relu_3x3/body"
  type: "ReLU"
  bottom: "inception_2b/3x3/body"
  top: "inception_2b/3x3/body"
}

layer {
  name: "inception_2b/double_3x3_reduce/body"
  type: "Convolution"
  bottom: "inception_2a/output/body"
  top: "inception_2b/double_3x3_reduce/body"
  param {
    lr_mult: 0
    decay_mult: 0
  }
  convolution_param {
    num_output: 128
    bias_term: false
    kernel_size: 1
    stride: 1
    weight_filler {
      type: "xavier"
    }
  }
}

layer {
  name: "inception_2b/double_3x3_reduce_bn/body"
  type: "BatchNorm"
  bottom: "inception_2b/double_3x3_reduce/body"
  top: "inception_2b/double_3x3_reduce/body"
  batch_norm_param {
    use_global_stats: true
  }
}

layer {
  name: "inception_2b/double_3x3_reduce_scale/body"
  type: "Scale"
  bottom: "inception_2b/double_3x3_reduce/body"
  top: "inception_2b/double_3x3_reduce/body"
  scale_param {
    bias_term: true
  }
}

layer {
  name: "inception_2b/relu_double_3x3_reduce/body"
  type: "ReLU"
  bottom: "inception_2b/double_3x3_reduce/body"
  top: "inception_2b/double_3x3_reduce/body"
}

layer {
  name: "inception_2b/double_3x3_1/body"
  type: "Convolution"
  bottom: "inception_2b/double_3x3_reduce/body"
  top: "inception_2b/double_3x3_1/body"
  param {
    lr_mult: 0
    decay_mult: 0
  }
  convolution_param {
    num_output: 128
    bias_term: false
    pad: 1
    kernel_size: 3
    stride: 1
    weight_filler {
      type: "xavier"
    }
  }
}

layer {
  name: "inception_2b/double_3x3_1_bn/body"
  type: "BatchNorm"
  bottom: "inception_2b/double_3x3_1/body"
  top: "inception_2b/double_3x3_1/body"
  batch_norm_param {
    use_global_stats: true
  }
}

layer {
  name: "inception_2b/double_3x3_1_scale/body"
  type: "Scale"
  bottom: "inception_2b/double_3x3_1/body"
  top: "inception_2b/double_3x3_1/body"
  scale_param {
    bias_term: true
  }
}

layer {
  name: "inception_2b/relu_double_3x3_1/body"
  type: "ReLU"
  bottom: "inception_2b/double_3x3_1/body"
  top: "inception_2b/double_3x3_1/body"
}

layer {
  name: "inception_2b/double_3x3_2/body"
  type: "Convolution"
  bottom: "inception_2b/double_3x3_1/body"
  top: "inception_2b/double_3x3_2/body"
  param {
    lr_mult: 0
    decay_mult: 0
  }
  convolution_param {
    num_output: 128
    bias_term: false
    pad: 1
    kernel_size: 3
    stride: 2
    weight_filler {
      type: "xavier"
    }
  }
}

layer {
  name: "inception_2b/double_3x3_2_bn/body"
  type: "BatchNorm"
  bottom: "inception_2b/double_3x3_2/body"
  top: "inception_2b/double_3x3_2/body"
  batch_norm_param {
    use_global_stats: true
  }
}

layer {
  name: "inception_2b/double_3x3_2_scale/body"
  type: "Scale"
  bottom: "inception_2b/double_3x3_2/body"
  top: "inception_2b/double_3x3_2/body"
  scale_param {
    bias_term: true
  }
}

layer {
  name: "inception_2b/relu_double_3x3_2/body"
  type: "ReLU"
  bottom: "inception_2b/double_3x3_2/body"
  top: "inception_2b/double_3x3_2/body"
}

layer {
  name: "inception_2b/pool/body"
  type: "Pooling"
  bottom: "inception_2a/output/body"
  top: "inception_2b/pool/body"
  pooling_param {
    pool: MAX
    kernel_size: 3
    stride: 2
  }
}

layer {
  name: "inception_2b/output/body"
  type: "Concat"
  bottom: "inception_2b/3x3/body"
  bottom: "inception_2b/double_3x3_2/body"
  bottom: "inception_2b/pool/body"
  top: "inception_2b/output/body"
}

######################### inception_3a #########################

layer {
  name: "inception_3a/1x1/body"
  type: "Convolution"
  bottom: "inception_2b/output/body"
  top: "inception_3a/1x1/body"
  param {
    lr_mult: 0
    decay_mult: 0
  }
  convolution_param {
    num_output: 256
    bias_term: false
    kernel_size: 1
    stride: 1
    weight_filler {
      type: "xavier"
    }
  }
}

layer {
  name: "inception_3a/1x1_bn/body"
  type: "BatchNorm"
  bottom: "inception_3a/1x1/body"
  top: "inception_3a/1x1/body"
  batch_norm_param {
    use_global_stats: true
  }
}

layer {
  name: "inception_3a/1x1_scale/body"
  type: "Scale"
  bottom: "inception_3a/1x1/body"
  top: "inception_3a/1x1/body"
  scale_param {
    bias_term: true
  }
}

layer {
  name: "inception_3a/relu_1x1/body"
  type: "ReLU"
  bottom: "inception_3a/1x1/body"
  top: "inception_3a/1x1/body"
}

layer {
  name: "inception_3a/3x3_reduce/body"
  type: "Convolution"
  bottom: "inception_2b/output/body"
  top: "inception_3a/3x3_reduce/body"
  param {
    lr_mult: 0
    decay_mult: 0
  }
  convolution_param {
    num_output: 256
    bias_term: false
    kernel_size: 1
    stride: 1
    weight_filler {
      type: "xavier"
    }
  }
}

layer {
  name: "inception_3a/3x3_reduce_bn/body"
  type: "BatchNorm"
  bottom: "inception_3a/3x3_reduce/body"
  top: "inception_3a/3x3_reduce/body"
  batch_norm_param {
    use_global_stats: true
  }
}

layer {
  name: "inception_3a/3x3_reduce_scale/body"
  type: "Scale"
  bottom: "inception_3a/3x3_reduce/body"
  top: "inception_3a/3x3_reduce/body"
  scale_param {
    bias_term: true
  }
}

layer {
  name: "inception_3a/relu_3x3_reduce/body"
  type: "ReLU"
  bottom: "inception_3a/3x3_reduce/body"
  top: "inception_3a/3x3_reduce/body"
}

layer {
  name: "inception_3a/3x3/body"
  type: "Convolution"
  bottom: "inception_3a/3x3_reduce/body"
  top: "inception_3a/3x3/body"
  param {
    lr_mult: 0
    decay_mult: 0
  }
  convolution_param {
    num_output: 256
    bias_term: false
    pad: 1
    kernel_size: 3
    stride: 1
    weight_filler {
      type: "xavier"
    }
  }
}

layer {
  name: "inception_3a/3x3_bn/body"
  type: "BatchNorm"
  bottom: "inception_3a/3x3/body"
  top: "inception_3a/3x3/body"
  batch_norm_param {
    use_global_stats: true
  }
}

layer {
  name: "inception_3a/3x3_scale/body"
  type: "Scale"
  bottom: "inception_3a/3x3/body"
  top: "inception_3a/3x3/body"
  scale_param {
    bias_term: true
  }
}

layer {
  name: "inception_3a/relu_3x3/body"
  type: "ReLU"
  bottom: "inception_3a/3x3/body"
  top: "inception_3a/3x3/body"
}

layer {
  name: "inception_3a/double_3x3_reduce/body"
  type: "Convolution"
  bottom: "inception_2b/output/body"
  top: "inception_3a/double_3x3_reduce/body"
  param {
    lr_mult: 0
    decay_mult: 0
  }
  convolution_param {
    num_output: 256
    bias_term: false
    kernel_size: 1
    stride: 1
    weight_filler {
      type: "xavier"
    }
  }
}

layer {
  name: "inception_3a/double_3x3_reduce_bn/body"
  type: "BatchNorm"
  bottom: "inception_3a/double_3x3_reduce/body"
  top: "inception_3a/double_3x3_reduce/body"
  batch_norm_param {
    use_global_stats: true
  }
}

layer {
  name: "inception_3a/double_3x3_reduce_scale/body"
  type: "Scale"
  bottom: "inception_3a/double_3x3_reduce/body"
  top: "inception_3a/double_3x3_reduce/body"
  scale_param {
    bias_term: true
  }
}

layer {
  name: "inception_3a/relu_double_3x3_reduce/body"
  type: "ReLU"
  bottom: "inception_3a/double_3x3_reduce/body"
  top: "inception_3a/double_3x3_reduce/body"
}

layer {
  name: "inception_3a/double_3x3_1/body"
  type: "Convolution"
  bottom: "inception_3a/double_3x3_reduce/body"
  top: "inception_3a/double_3x3_1/body"
  param {
    lr_mult: 0
    decay_mult: 0
  }
  convolution_param {
    num_output: 256
    bias_term: false
    pad: 1
    kernel_size: 3
    stride: 1
    weight_filler {
      type: "xavier"
    }
  }
}

layer {
  name: "inception_3a/double_3x3_1_bn/body"
  type: "BatchNorm"
  bottom: "inception_3a/double_3x3_1/body"
  top: "inception_3a/double_3x3_1/body"
  batch_norm_param {
    use_global_stats: true
  }
}

layer {
  name: "inception_3a/double_3x3_1_scale/body"
  type: "Scale"
  bottom: "inception_3a/double_3x3_1/body"
  top: "inception_3a/double_3x3_1/body"
  scale_param {
    bias_term: true
  }
}

layer {
  name: "inception_3a/relu_double_3x3_1/body"
  type: "ReLU"
  bottom: "inception_3a/double_3x3_1/body"
  top: "inception_3a/double_3x3_1/body"
}

layer {
  name: "inception_3a/double_3x3_2/body"
  type: "Convolution"
  bottom: "inception_3a/double_3x3_1/body"
  top: "inception_3a/double_3x3_2/body"
  param {
    lr_mult: 0
    decay_mult: 0
  }
  convolution_param {
    num_output: 256
    bias_term: false
    pad: 1
    kernel_size: 3
    stride: 1
    weight_filler {
      type: "xavier"
    }
  }
}

layer {
  name: "inception_3a/double_3x3_2_bn/body"
  type: "BatchNorm"
  bottom: "inception_3a/double_3x3_2/body"
  top: "inception_3a/double_3x3_2/body"
  batch_norm_param {
    use_global_stats: true
  }
}

layer {
  name: "inception_3a/double_3x3_2_scale/body"
  type: "Scale"
  bottom: "inception_3a/double_3x3_2/body"
  top: "inception_3a/double_3x3_2/body"
  scale_param {
    bias_term: true
  }
}

layer {
  name: "inception_3a/relu_double_3x3_2/body"
  type: "ReLU"
  bottom: "inception_3a/double_3x3_2/body"
  top: "inception_3a/double_3x3_2/body"
}

layer {
  name: "inception_3a/pool/body"
  type: "Pooling"
  bottom: "inception_2b/output/body"
  top: "inception_3a/pool/body"
  pooling_param {
    pool: AVE
    kernel_size: 3
    stride: 1
    pad: 1
  }
}

layer {
  name: "inception_3a/pool_proj/body"
  type: "Convolution"
  bottom: "inception_3a/pool/body"
  top: "inception_3a/pool_proj/body"
  param {
    lr_mult: 0
    decay_mult: 0
  }
  convolution_param {
    num_output: 256
    bias_term: false
    kernel_size: 1
    stride: 1
    weight_filler {
      type: "xavier"
    }
  }
}

layer {
  name: "inception_3a/pool_proj_bn/body"
  type: "BatchNorm"
  bottom: "inception_3a/pool_proj/body"
  top: "inception_3a/pool_proj/body"
  batch_norm_param {
    use_global_stats: true
  }
}

layer {
  name: "inception_3a/pool_proj_scale/body"
  type: "Scale"
  bottom: "inception_3a/pool_proj/body"
  top: "inception_3a/pool_proj/body"
  scale_param {
    bias_term: true
  }
}

layer {
  name: "inception_3a/relu_pool_proj/body"
  type: "ReLU"
  bottom: "inception_3a/pool_proj/body"
  top: "inception_3a/pool_proj/body"
}

layer {
  name: "inception_3a/output/body"
  type: "Concat"
  bottom: "inception_3a/1x1/body"
  bottom: "inception_3a/3x3/body"
  bottom: "inception_3a/double_3x3_2/body"
  bottom: "inception_3a/pool_proj/body"
  top: "inception_3a/output/body"
}

######################### inception_3b #########################

layer {
  name: "inception_3b/3x3_reduce/body"
  type: "Convolution"
  bottom: "inception_3a/output/body"
  top: "inception_3b/3x3_reduce/body"
  param {
    lr_mult: 0
    decay_mult: 0
  }
  convolution_param {
    num_output: 256
    bias_term: false
    kernel_size: 1
    stride: 1
    weight_filler {
      type: "xavier"
    }
  }
}

layer {
  name: "inception_3b/3x3_reduce_bn/body"
  type: "BatchNorm"
  bottom: "inception_3b/3x3_reduce/body"
  top: "inception_3b/3x3_reduce/body"
  batch_norm_param {
    use_global_stats: true
  }
}

layer {
  name: "inception_3b/3x3_reduce_scale/body"
  type: "Scale"
  bottom: "inception_3b/3x3_reduce/body"
  top: "inception_3b/3x3_reduce/body"
  scale_param {
    bias_term: true
  }
}

layer {
  name: "inception_3b/relu_3x3_reduce/body"
  type: "ReLU"
  bottom: "inception_3b/3x3_reduce/body"
  top: "inception_3b/3x3_reduce/body"
}

layer {
  name: "inception_3b/3x3/body"
  type: "Convolution"
  bottom: "inception_3b/3x3_reduce/body"
  top: "inception_3b/3x3/body"
  param {
    lr_mult: 0
    decay_mult: 0
  }
  convolution_param {
    num_output: 256
    bias_term: false
    pad: 1
    kernel_size: 3
    stride: 2
    weight_filler {
      type: "xavier"
    }
  }
}

layer {
  name: "inception_3b/3x3_bn/body"
  type: "BatchNorm"
  bottom: "inception_3b/3x3/body"
  top: "inception_3b/3x3/body"
  batch_norm_param {
    use_global_stats: true
  }
}

layer {
  name: "inception_3b/3x3_scale/body"
  type: "Scale"
  bottom: "inception_3b/3x3/body"
  top: "inception_3b/3x3/body"
  scale_param {
    bias_term: true
  }
}

layer {
  name: "inception_3b/relu_3x3/body"
  type: "ReLU"
  bottom: "inception_3b/3x3/body"
  top: "inception_3b/3x3/body"
}

layer {
  name: "inception_3b/double_3x3_reduce/body"
  type: "Convolution"
  bottom: "inception_3a/output/body"
  top: "inception_3b/double_3x3_reduce/body"
  param {
    lr_mult: 0
    decay_mult: 0
  }
  convolution_param {
    num_output: 256
    bias_term: false
    kernel_size: 1
    stride: 1
    weight_filler {
      type: "xavier"
    }
  }
}

layer {
  name: "inception_3b/double_3x3_reduce_bn/body"
  type: "BatchNorm"
  bottom: "inception_3b/double_3x3_reduce/body"
  top: "inception_3b/double_3x3_reduce/body"
  batch_norm_param {
    use_global_stats: true
  }
}

layer {
  name: "inception_3b/double_3x3_reduce_scale/body"
  type: "Scale"
  bottom: "inception_3b/double_3x3_reduce/body"
  top: "inception_3b/double_3x3_reduce/body"
  scale_param {
    bias_term: true
  }
}

layer {
  name: "inception_3b/relu_double_3x3_reduce/body"
  type: "ReLU"
  bottom: "inception_3b/double_3x3_reduce/body"
  top: "inception_3b/double_3x3_reduce/body"
}

layer {
  name: "inception_3b/double_3x3_1/body"
  type: "Convolution"
  bottom: "inception_3b/double_3x3_reduce/body"
  top: "inception_3b/double_3x3_1/body"
  param {
    lr_mult: 0
    decay_mult: 0
  }
  convolution_param {
    num_output: 256
    bias_term: false
    pad: 1
    kernel_size: 3
    stride: 1
    weight_filler {
      type: "xavier"
    }
  }
}

layer {
  name: "inception_3b/double_3x3_1_bn/body"
  type: "BatchNorm"
  bottom: "inception_3b/double_3x3_1/body"
  top: "inception_3b/double_3x3_1/body"
  batch_norm_param {
    use_global_stats: true
  }
}

layer {
  name: "inception_3b/double_3x3_1_scale/body"
  type: "Scale"
  bottom: "inception_3b/double_3x3_1/body"
  top: "inception_3b/double_3x3_1/body"
  scale_param {
    bias_term: true
  }
}

layer {
  name: "inception_3b/relu_double_3x3_1/body"
  type: "ReLU"
  bottom: "inception_3b/double_3x3_1/body"
  top: "inception_3b/double_3x3_1/body"
}

layer {
  name: "inception_3b/double_3x3_2/body"
  type: "Convolution"
  bottom: "inception_3b/double_3x3_1/body"
  top: "inception_3b/double_3x3_2/body"
  param {
    lr_mult: 0
    decay_mult: 0
  }
  convolution_param {
    num_output: 256
    bias_term: false
    pad: 1
    kernel_size: 3
    stride: 2
    weight_filler {
      type: "xavier"
    }
  }
}

layer {
  name: "inception_3b/double_3x3_2_bn/body"
  type: "BatchNorm"
  bottom: "inception_3b/double_3x3_2/body"
  top: "inception_3b/double_3x3_2/body"
  batch_norm_param {
    use_global_stats: true
  }
}

layer {
  name: "inception_3b/double_3x3_2_scale/body"
  type: "Scale"
  bottom: "inception_3b/double_3x3_2/body"
  top: "inception_3b/double_3x3_2/body"
  scale_param {
    bias_term: true
  }
}

layer {
  name: "inception_3b/relu_double_3x3_2/body"
  type: "ReLU"
  bottom: "inception_3b/double_3x3_2/body"
  top: "inception_3b/double_3x3_2/body"
}

layer {
  name: "inception_3b/pool/body"
  type: "Pooling"
  bottom: "inception_3a/output/body"
  top: "inception_3b/pool/body"
  pooling_param {
    pool: MAX
    kernel_size: 3
    stride: 2
  }
}

layer {
  name: "inception_3b/output/body"
  type: "Concat"
  bottom: "inception_3b/3x3/body"
  bottom: "inception_3b/double_3x3_2/body"
  bottom: "inception_3b/pool/body"
  top: "inception_3b/output/body"
}

######################### global pool #########################

layer {
  name: "global_pool/body"
  top: "global_pool/body"
  bottom: "inception_3b/output/body"
  type: "Pooling"
  pooling_param {
    pool: AVE
    kernel_h: 6
    kernel_w: 6
    stride: 1
  }
}

######################### fc #########################

layer {
  name: "fc7/body"
  type: "InnerProduct"
  bottom: "global_pool/body"
  top: "fc7/body"
  param {
    lr_mult: 0
    decay_mult: 0
  }
  param {
    lr_mult: 0
    decay_mult: 0
  }
  inner_product_param {
    num_output: 256
    weight_filler {
      type: "gaussian"
      std: 0.001
    }
    bias_filler {
      type: "constant"
      value: 0
    }
  }
}

layer {
  name: "fc7_bn/body"
  type: "BatchNorm"
  bottom: "fc7/body"
  top: "fc7/body"
  batch_norm_param {
    use_global_stats: true
  }
}

layer {
  name: "fc7_scale/body"
  type: "Scale"
  bottom: "fc7/body"
  top: "fc7/body"
  scale_param {
    bias_term: true
  }
}

layer {
  name: "inception_1b/output/leg"
  type: "ROIPooling"
  bottom: "inception_1b/output"
  bottom: "legbox"
  top: "inception_1b/output/leg"
  roi_pooling_param {
  	pooled_w: 24
    pooled_h: 24
    spatial_scale: 0.25 #(1/4)
  }
}

######################### inception_2a #########################

layer {
  name: "inception_2a/1x1/leg"
  type: "Convolution"
  bottom: "inception_1b/output/leg"
  top: "inception_2a/1x1/leg"
  param {
    lr_mult: 0
    decay_mult: 0
  }
  convolution_param {
    num_output: 128
    bias_term: false
    kernel_size: 1
    stride: 1
    weight_filler {
      type: "xavier"
    }
  }
}

layer {
  name: "inception_2a/1x1_bn/leg"
  type: "BatchNorm"
  bottom: "inception_2a/1x1/leg"
  top: "inception_2a/1x1/leg"
  batch_norm_param {
    use_global_stats: true
  }
}

layer {
  name: "inception_2a/1x1_scale/leg"
  type: "Scale"
  bottom: "inception_2a/1x1/leg"
  top: "inception_2a/1x1/leg"
  scale_param {
    bias_term: true
  }
}

layer {
  name: "inception_2a/relu_1x1/leg"
  type: "ReLU"
  bottom: "inception_2a/1x1/leg"
  top: "inception_2a/1x1/leg"
}

layer {
  name: "inception_2a/3x3_reduce/leg"
  type: "Convolution"
  bottom: "inception_1b/output/leg"
  top: "inception_2a/3x3_reduce/leg"
  param {
    lr_mult: 0
    decay_mult: 0
  }
  convolution_param {
    num_output: 128
    bias_term: false
    kernel_size: 1
    stride: 1
    weight_filler {
      type: "xavier"
    }
  }
}

layer {
  name: "inception_2a/3x3_reduce_bn/leg"
  type: "BatchNorm"
  bottom: "inception_2a/3x3_reduce/leg"
  top: "inception_2a/3x3_reduce/leg"
  batch_norm_param {
    use_global_stats: true
  }
}

layer {
  name: "inception_2a/3x3_reduce_scale/leg"
  type: "Scale"
  bottom: "inception_2a/3x3_reduce/leg"
  top: "inception_2a/3x3_reduce/leg"
  scale_param {
    bias_term: true
  }
}

layer {
  name: "inception_2a/relu_3x3_reduce/leg"
  type: "ReLU"
  bottom: "inception_2a/3x3_reduce/leg"
  top: "inception_2a/3x3_reduce/leg"
}

layer {
  name: "inception_2a/3x3/leg"
  type: "Convolution"
  bottom: "inception_2a/3x3_reduce/leg"
  top: "inception_2a/3x3/leg"
  param {
    lr_mult: 0
    decay_mult: 0
  }
  convolution_param {
    num_output: 128
    bias_term: false
    pad: 1
    kernel_size: 3
    stride: 1
    weight_filler {
      type: "xavier"
    }
  }
}

layer {
  name: "inception_2a/3x3_bn/leg"
  type: "BatchNorm"
  bottom: "inception_2a/3x3/leg"
  top: "inception_2a/3x3/leg"
  batch_norm_param {
    use_global_stats: true
  }
}

layer {
  name: "inception_2a/3x3_scale/leg"
  type: "Scale"
  bottom: "inception_2a/3x3/leg"
  top: "inception_2a/3x3/leg"
  scale_param {
    bias_term: true
  }
}

layer {
  name: "inception_2a/relu_3x3/leg"
  type: "ReLU"
  bottom: "inception_2a/3x3/leg"
  top: "inception_2a/3x3/leg"
}

layer {
  name: "inception_2a/double_3x3_reduce/leg"
  type: "Convolution"
  bottom: "inception_1b/output/leg"
  top: "inception_2a/double_3x3_reduce/leg"
  param {
    lr_mult: 0
    decay_mult: 0
  }
  convolution_param {
    num_output: 128
    bias_term: false
    kernel_size: 1
    stride: 1
    weight_filler {
      type: "xavier"
    }
  }
}

layer {
  name: "inception_2a/double_3x3_reduce_bn/leg"
  type: "BatchNorm"
  bottom: "inception_2a/double_3x3_reduce/leg"
  top: "inception_2a/double_3x3_reduce/leg"
  batch_norm_param {
    use_global_stats: true
  }
}

layer {
  name: "inception_2a/double_3x3_reduce_scale/leg"
  type: "Scale"
  bottom: "inception_2a/double_3x3_reduce/leg"
  top: "inception_2a/double_3x3_reduce/leg"
  scale_param {
    bias_term: true
  }
}

layer {
  name: "inception_2a/relu_double_3x3_reduce/leg"
  type: "ReLU"
  bottom: "inception_2a/double_3x3_reduce/leg"
  top: "inception_2a/double_3x3_reduce/leg"
}

layer {
  name: "inception_2a/double_3x3_1/leg"
  type: "Convolution"
  bottom: "inception_2a/double_3x3_reduce/leg"
  top: "inception_2a/double_3x3_1/leg"
  param {
    lr_mult: 0
    decay_mult: 0
  }
  convolution_param {
    num_output: 128
    bias_term: false
    pad: 1
    kernel_size: 3
    stride: 1
    weight_filler {
      type: "xavier"
    }
  }
}

layer {
  name: "inception_2a/double_3x3_1_bn/leg"
  type: "BatchNorm"
  bottom: "inception_2a/double_3x3_1/leg"
  top: "inception_2a/double_3x3_1/leg"
  batch_norm_param {
    use_global_stats: true
  }
}

layer {
  name: "inception_2a/double_3x3_1_scale/leg"
  type: "Scale"
  bottom: "inception_2a/double_3x3_1/leg"
  top: "inception_2a/double_3x3_1/leg"
  scale_param {
    bias_term: true
  }
}

layer {
  name: "inception_2a/relu_double_3x3_1/leg"
  type: "ReLU"
  bottom: "inception_2a/double_3x3_1/leg"
  top: "inception_2a/double_3x3_1/leg"
}

layer {
  name: "inception_2a/double_3x3_2/leg"
  type: "Convolution"
  bottom: "inception_2a/double_3x3_1/leg"
  top: "inception_2a/double_3x3_2/leg"
  param {
    lr_mult: 0
    decay_mult: 0
  }
  convolution_param {
    num_output: 128
    bias_term: false
    pad: 1
    kernel_size: 3
    stride: 1
    weight_filler {
      type: "xavier"
    }
  }
}

layer {
  name: "inception_2a/double_3x3_2_bn/leg"
  type: "BatchNorm"
  bottom: "inception_2a/double_3x3_2/leg"
  top: "inception_2a/double_3x3_2/leg"
  batch_norm_param {
    use_global_stats: true
  }
}

layer {
  name: "inception_2a/double_3x3_2_scale/leg"
  type: "Scale"
  bottom: "inception_2a/double_3x3_2/leg"
  top: "inception_2a/double_3x3_2/leg"
  scale_param {
    bias_term: true
  }
}

layer {
  name: "inception_2a/relu_double_3x3_2/leg"
  type: "ReLU"
  bottom: "inception_2a/double_3x3_2/leg"
  top: "inception_2a/double_3x3_2/leg"
}

layer {
  name: "inception_2a/pool/leg"
  type: "Pooling"
  bottom: "inception_1b/output/leg"
  top: "inception_2a/pool/leg"
  pooling_param {
    pool: AVE
    kernel_size: 3
    stride: 1
    pad: 1
  }
}

layer {
  name: "inception_2a/pool_proj/leg"
  type: "Convolution"
  bottom: "inception_2a/pool/leg"
  top: "inception_2a/pool_proj/leg"
  param {
    lr_mult: 0
    decay_mult: 0
  }
  convolution_param {
    num_output: 128
    bias_term: false
    kernel_size: 1
    stride: 1
    weight_filler {
      type: "xavier"
    }
  }
}

layer {
  name: "inception_2a/pool_proj_bn/leg"
  type: "BatchNorm"
  bottom: "inception_2a/pool_proj/leg"
  top: "inception_2a/pool_proj/leg"
  batch_norm_param {
    use_global_stats: true
  }
}

layer {
  name: "inception_2a/pool_proj_scale/leg"
  type: "Scale"
  bottom: "inception_2a/pool_proj/leg"
  top: "inception_2a/pool_proj/leg"
  scale_param {
    bias_term: true
  }
}

layer {
  name: "inception_2a/relu_pool_proj/leg"
  type: "ReLU"
  bottom: "inception_2a/pool_proj/leg"
  top: "inception_2a/pool_proj/leg"
}

layer {
  name: "inception_2a/output/leg"
  type: "Concat"
  bottom: "inception_2a/1x1/leg"
  bottom: "inception_2a/3x3/leg"
  bottom: "inception_2a/double_3x3_2/leg"
  bottom: "inception_2a/pool_proj/leg"
  top: "inception_2a/output/leg"
}

########################### inception_2b #########################

layer {
  name: "inception_2b/3x3_reduce/leg"
  type: "Convolution"
  bottom: "inception_2a/output/leg"
  top: "inception_2b/3x3_reduce/leg"
  param {
    lr_mult: 0
    decay_mult: 0
  }
  convolution_param {
    num_output: 128
    bias_term: false
    kernel_size: 1
    stride: 1
    weight_filler {
      type: "xavier"
    }
  }
}

layer {
  name: "inception_2b/3x3_reduce_bn/leg"
  type: "BatchNorm"
  bottom: "inception_2b/3x3_reduce/leg"
  top: "inception_2b/3x3_reduce/leg"
  batch_norm_param {
    use_global_stats: true
  }
}

layer {
  name: "inception_2b/3x3_reduce_scale/leg"
  type: "Scale"
  bottom: "inception_2b/3x3_reduce/leg"
  top: "inception_2b/3x3_reduce/leg"
  scale_param {
    bias_term: true
  }
}

layer {
  name: "inception_2b/relu_3x3_reduce/leg"
  type: "ReLU"
  bottom: "inception_2b/3x3_reduce/leg"
  top: "inception_2b/3x3_reduce/leg"
}

layer {
  name: "inception_2b/3x3/leg"
  type: "Convolution"
  bottom: "inception_2b/3x3_reduce/leg"
  top: "inception_2b/3x3/leg"
  param {
    lr_mult: 0
    decay_mult: 0
  }
  convolution_param {
    num_output: 128
    bias_term: false
    pad: 1
    kernel_size: 3
    stride: 2
    weight_filler {
      type: "xavier"
    }
  }
}

layer {
  name: "inception_2b/3x3_bn/leg"
  type: "BatchNorm"
  bottom: "inception_2b/3x3/leg"
  top: "inception_2b/3x3/leg"
  batch_norm_param {
    use_global_stats: true
  }
}

layer {
  name: "inception_2b/3x3_scale/leg"
  type: "Scale"
  bottom: "inception_2b/3x3/leg"
  top: "inception_2b/3x3/leg"
  scale_param {
    bias_term: true
  }
}

layer {
  name: "inception_2b/relu_3x3/leg"
  type: "ReLU"
  bottom: "inception_2b/3x3/leg"
  top: "inception_2b/3x3/leg"
}

layer {
  name: "inception_2b/double_3x3_reduce/leg"
  type: "Convolution"
  bottom: "inception_2a/output/leg"
  top: "inception_2b/double_3x3_reduce/leg"
  param {
    lr_mult: 0
    decay_mult: 0
  }
  convolution_param {
    num_output: 128
    bias_term: false
    kernel_size: 1
    stride: 1
    weight_filler {
      type: "xavier"
    }
  }
}

layer {
  name: "inception_2b/double_3x3_reduce_bn/leg"
  type: "BatchNorm"
  bottom: "inception_2b/double_3x3_reduce/leg"
  top: "inception_2b/double_3x3_reduce/leg"
  batch_norm_param {
    use_global_stats: true
  }
}

layer {
  name: "inception_2b/double_3x3_reduce_scale/leg"
  type: "Scale"
  bottom: "inception_2b/double_3x3_reduce/leg"
  top: "inception_2b/double_3x3_reduce/leg"
  scale_param {
    bias_term: true
  }
}

layer {
  name: "inception_2b/relu_double_3x3_reduce/leg"
  type: "ReLU"
  bottom: "inception_2b/double_3x3_reduce/leg"
  top: "inception_2b/double_3x3_reduce/leg"
}

layer {
  name: "inception_2b/double_3x3_1/leg"
  type: "Convolution"
  bottom: "inception_2b/double_3x3_reduce/leg"
  top: "inception_2b/double_3x3_1/leg"
  param {
    lr_mult: 0
    decay_mult: 0
  }
  convolution_param {
    num_output: 128
    bias_term: false
    pad: 1
    kernel_size: 3
    stride: 1
    weight_filler {
      type: "xavier"
    }
  }
}

layer {
  name: "inception_2b/double_3x3_1_bn/leg"
  type: "BatchNorm"
  bottom: "inception_2b/double_3x3_1/leg"
  top: "inception_2b/double_3x3_1/leg"
  batch_norm_param {
    use_global_stats: true
  }
}

layer {
  name: "inception_2b/double_3x3_1_scale/leg"
  type: "Scale"
  bottom: "inception_2b/double_3x3_1/leg"
  top: "inception_2b/double_3x3_1/leg"
  scale_param {
    bias_term: true
  }
}

layer {
  name: "inception_2b/relu_double_3x3_1/leg"
  type: "ReLU"
  bottom: "inception_2b/double_3x3_1/leg"
  top: "inception_2b/double_3x3_1/leg"
}

layer {
  name: "inception_2b/double_3x3_2/leg"
  type: "Convolution"
  bottom: "inception_2b/double_3x3_1/leg"
  top: "inception_2b/double_3x3_2/leg"
  param {
    lr_mult: 0
    decay_mult: 0
  }
  convolution_param {
    num_output: 128
    bias_term: false
    pad: 1
    kernel_size: 3
    stride: 2
    weight_filler {
      type: "xavier"
    }
  }
}

layer {
  name: "inception_2b/double_3x3_2_bn/leg"
  type: "BatchNorm"
  bottom: "inception_2b/double_3x3_2/leg"
  top: "inception_2b/double_3x3_2/leg"
  batch_norm_param {
    use_global_stats: true
  }
}

layer {
  name: "inception_2b/double_3x3_2_scale/leg"
  type: "Scale"
  bottom: "inception_2b/double_3x3_2/leg"
  top: "inception_2b/double_3x3_2/leg"
  scale_param {
    bias_term: true
  }
}

layer {
  name: "inception_2b/relu_double_3x3_2/leg"
  type: "ReLU"
  bottom: "inception_2b/double_3x3_2/leg"
  top: "inception_2b/double_3x3_2/leg"
}

layer {
  name: "inception_2b/pool/leg"
  type: "Pooling"
  bottom: "inception_2a/output/leg"
  top: "inception_2b/pool/leg"
  pooling_param {
    pool: MAX
    kernel_size: 3
    stride: 2
  }
}

layer {
  name: "inception_2b/output/leg"
  type: "Concat"
  bottom: "inception_2b/3x3/leg"
  bottom: "inception_2b/double_3x3_2/leg"
  bottom: "inception_2b/pool/leg"
  top: "inception_2b/output/leg"
}

######################### inception_3a #########################

layer {
  name: "inception_3a/1x1/leg"
  type: "Convolution"
  bottom: "inception_2b/output/leg"
  top: "inception_3a/1x1/leg"
  param {
    lr_mult: 0
    decay_mult: 0
  }
  convolution_param {
    num_output: 256
    bias_term: false
    kernel_size: 1
    stride: 1
    weight_filler {
      type: "xavier"
    }
  }
}

layer {
  name: "inception_3a/1x1_bn/leg"
  type: "BatchNorm"
  bottom: "inception_3a/1x1/leg"
  top: "inception_3a/1x1/leg"
  batch_norm_param {
    use_global_stats: true
  }
}

layer {
  name: "inception_3a/1x1_scale/leg"
  type: "Scale"
  bottom: "inception_3a/1x1/leg"
  top: "inception_3a/1x1/leg"
  scale_param {
    bias_term: true
  }
}

layer {
  name: "inception_3a/relu_1x1/leg"
  type: "ReLU"
  bottom: "inception_3a/1x1/leg"
  top: "inception_3a/1x1/leg"
}

layer {
  name: "inception_3a/3x3_reduce/leg"
  type: "Convolution"
  bottom: "inception_2b/output/leg"
  top: "inception_3a/3x3_reduce/leg"
  param {
    lr_mult: 0
    decay_mult: 0
  }
  convolution_param {
    num_output: 256
    bias_term: false
    kernel_size: 1
    stride: 1
    weight_filler {
      type: "xavier"
    }
  }
}

layer {
  name: "inception_3a/3x3_reduce_bn/leg"
  type: "BatchNorm"
  bottom: "inception_3a/3x3_reduce/leg"
  top: "inception_3a/3x3_reduce/leg"
  batch_norm_param {
    use_global_stats: true
  }
}

layer {
  name: "inception_3a/3x3_reduce_scale/leg"
  type: "Scale"
  bottom: "inception_3a/3x3_reduce/leg"
  top: "inception_3a/3x3_reduce/leg"
  scale_param {
    bias_term: true
  }
}

layer {
  name: "inception_3a/relu_3x3_reduce/leg"
  type: "ReLU"
  bottom: "inception_3a/3x3_reduce/leg"
  top: "inception_3a/3x3_reduce/leg"
}

layer {
  name: "inception_3a/3x3/leg"
  type: "Convolution"
  bottom: "inception_3a/3x3_reduce/leg"
  top: "inception_3a/3x3/leg"
  param {
    lr_mult: 0
    decay_mult: 0
  }
  convolution_param {
    num_output: 256
    bias_term: false
    pad: 1
    kernel_size: 3
    stride: 1
    weight_filler {
      type: "xavier"
    }
  }
}

layer {
  name: "inception_3a/3x3_bn/leg"
  type: "BatchNorm"
  bottom: "inception_3a/3x3/leg"
  top: "inception_3a/3x3/leg"
  batch_norm_param {
    use_global_stats: true
  }
}

layer {
  name: "inception_3a/3x3_scale/leg"
  type: "Scale"
  bottom: "inception_3a/3x3/leg"
  top: "inception_3a/3x3/leg"
  scale_param {
    bias_term: true
  }
}

layer {
  name: "inception_3a/relu_3x3/leg"
  type: "ReLU"
  bottom: "inception_3a/3x3/leg"
  top: "inception_3a/3x3/leg"
}

layer {
  name: "inception_3a/double_3x3_reduce/leg"
  type: "Convolution"
  bottom: "inception_2b/output/leg"
  top: "inception_3a/double_3x3_reduce/leg"
  param {
    lr_mult: 0
    decay_mult: 0
  }
  convolution_param {
    num_output: 256
    bias_term: false
    kernel_size: 1
    stride: 1
    weight_filler {
      type: "xavier"
    }
  }
}

layer {
  name: "inception_3a/double_3x3_reduce_bn/leg"
  type: "BatchNorm"
  bottom: "inception_3a/double_3x3_reduce/leg"
  top: "inception_3a/double_3x3_reduce/leg"
  batch_norm_param {
    use_global_stats: true
  }
}

layer {
  name: "inception_3a/double_3x3_reduce_scale/leg"
  type: "Scale"
  bottom: "inception_3a/double_3x3_reduce/leg"
  top: "inception_3a/double_3x3_reduce/leg"
  scale_param {
    bias_term: true
  }
}

layer {
  name: "inception_3a/relu_double_3x3_reduce/leg"
  type: "ReLU"
  bottom: "inception_3a/double_3x3_reduce/leg"
  top: "inception_3a/double_3x3_reduce/leg"
}

layer {
  name: "inception_3a/double_3x3_1/leg"
  type: "Convolution"
  bottom: "inception_3a/double_3x3_reduce/leg"
  top: "inception_3a/double_3x3_1/leg"
  param {
    lr_mult: 0
    decay_mult: 0
  }
  convolution_param {
    num_output: 256
    bias_term: false
    pad: 1
    kernel_size: 3
    stride: 1
    weight_filler {
      type: "xavier"
    }
  }
}

layer {
  name: "inception_3a/double_3x3_1_bn/leg"
  type: "BatchNorm"
  bottom: "inception_3a/double_3x3_1/leg"
  top: "inception_3a/double_3x3_1/leg"
  batch_norm_param {
    use_global_stats: true
  }
}

layer {
  name: "inception_3a/double_3x3_1_scale/leg"
  type: "Scale"
  bottom: "inception_3a/double_3x3_1/leg"
  top: "inception_3a/double_3x3_1/leg"
  scale_param {
    bias_term: true
  }
}

layer {
  name: "inception_3a/relu_double_3x3_1/leg"
  type: "ReLU"
  bottom: "inception_3a/double_3x3_1/leg"
  top: "inception_3a/double_3x3_1/leg"
}

layer {
  name: "inception_3a/double_3x3_2/leg"
  type: "Convolution"
  bottom: "inception_3a/double_3x3_1/leg"
  top: "inception_3a/double_3x3_2/leg"
  param {
    lr_mult: 0
    decay_mult: 0
  }
  convolution_param {
    num_output: 256
    bias_term: false
    pad: 1
    kernel_size: 3
    stride: 1
    weight_filler {
      type: "xavier"
    }
  }
}

layer {
  name: "inception_3a/double_3x3_2_bn/leg"
  type: "BatchNorm"
  bottom: "inception_3a/double_3x3_2/leg"
  top: "inception_3a/double_3x3_2/leg"
  batch_norm_param {
    use_global_stats: true
  }
}

layer {
  name: "inception_3a/double_3x3_2_scale/leg"
  type: "Scale"
  bottom: "inception_3a/double_3x3_2/leg"
  top: "inception_3a/double_3x3_2/leg"
  scale_param {
    bias_term: true
  }
}

layer {
  name: "inception_3a/relu_double_3x3_2/leg"
  type: "ReLU"
  bottom: "inception_3a/double_3x3_2/leg"
  top: "inception_3a/double_3x3_2/leg"
}

layer {
  name: "inception_3a/pool/leg"
  type: "Pooling"
  bottom: "inception_2b/output/leg"
  top: "inception_3a/pool/leg"
  pooling_param {
    pool: AVE
    kernel_size: 3
    stride: 1
    pad: 1
  }
}

layer {
  name: "inception_3a/pool_proj/leg"
  type: "Convolution"
  bottom: "inception_3a/pool/leg"
  top: "inception_3a/pool_proj/leg"
  param {
    lr_mult: 0
    decay_mult: 0
  }
  convolution_param {
    num_output: 256
    bias_term: false
    kernel_size: 1
    stride: 1
    weight_filler {
      type: "xavier"
    }
  }
}

layer {
  name: "inception_3a/pool_proj_bn/leg"
  type: "BatchNorm"
  bottom: "inception_3a/pool_proj/leg"
  top: "inception_3a/pool_proj/leg"
  batch_norm_param {
    use_global_stats: true
  }
}

layer {
  name: "inception_3a/pool_proj_scale/leg"
  type: "Scale"
  bottom: "inception_3a/pool_proj/leg"
  top: "inception_3a/pool_proj/leg"
  scale_param {
    bias_term: true
  }
}

layer {
  name: "inception_3a/relu_pool_proj/leg"
  type: "ReLU"
  bottom: "inception_3a/pool_proj/leg"
  top: "inception_3a/pool_proj/leg"
}

layer {
  name: "inception_3a/output/leg"
  type: "Concat"
  bottom: "inception_3a/1x1/leg"
  bottom: "inception_3a/3x3/leg"
  bottom: "inception_3a/double_3x3_2/leg"
  bottom: "inception_3a/pool_proj/leg"
  top: "inception_3a/output/leg"
}

######################### inception_3b #########################

layer {
  name: "inception_3b/3x3_reduce/leg"
  type: "Convolution"
  bottom: "inception_3a/output/leg"
  top: "inception_3b/3x3_reduce/leg"
  param {
    lr_mult: 0
    decay_mult: 0
  }
  convolution_param {
    num_output: 256
    bias_term: false
    kernel_size: 1
    stride: 1
    weight_filler {
      type: "xavier"
    }
  }
}

layer {
  name: "inception_3b/3x3_reduce_bn/leg"
  type: "BatchNorm"
  bottom: "inception_3b/3x3_reduce/leg"
  top: "inception_3b/3x3_reduce/leg"
  batch_norm_param {
    use_global_stats: true
  }
}

layer {
  name: "inception_3b/3x3_reduce_scale/leg"
  type: "Scale"
  bottom: "inception_3b/3x3_reduce/leg"
  top: "inception_3b/3x3_reduce/leg"
  scale_param {
    bias_term: true
  }
}

layer {
  name: "inception_3b/relu_3x3_reduce/leg"
  type: "ReLU"
  bottom: "inception_3b/3x3_reduce/leg"
  top: "inception_3b/3x3_reduce/leg"
}

layer {
  name: "inception_3b/3x3/leg"
  type: "Convolution"
  bottom: "inception_3b/3x3_reduce/leg"
  top: "inception_3b/3x3/leg"
  param {
    lr_mult: 0
    decay_mult: 0
  }
  convolution_param {
    num_output: 256
    bias_term: false
    pad: 1
    kernel_size: 3
    stride: 2
    weight_filler {
      type: "xavier"
    }
  }
}

layer {
  name: "inception_3b/3x3_bn/leg"
  type: "BatchNorm"
  bottom: "inception_3b/3x3/leg"
  top: "inception_3b/3x3/leg"
  batch_norm_param {
    use_global_stats: true
  }
}

layer {
  name: "inception_3b/3x3_scale/leg"
  type: "Scale"
  bottom: "inception_3b/3x3/leg"
  top: "inception_3b/3x3/leg"
  scale_param {
    bias_term: true
  }
}

layer {
  name: "inception_3b/relu_3x3/leg"
  type: "ReLU"
  bottom: "inception_3b/3x3/leg"
  top: "inception_3b/3x3/leg"
}

layer {
  name: "inception_3b/double_3x3_reduce/leg"
  type: "Convolution"
  bottom: "inception_3a/output/leg"
  top: "inception_3b/double_3x3_reduce/leg"
  param {
    lr_mult: 0
    decay_mult: 0
  }
  convolution_param {
    num_output: 256
    bias_term: false
    kernel_size: 1
    stride: 1
    weight_filler {
      type: "xavier"
    }
  }
}

layer {
  name: "inception_3b/double_3x3_reduce_bn/leg"
  type: "BatchNorm"
  bottom: "inception_3b/double_3x3_reduce/leg"
  top: "inception_3b/double_3x3_reduce/leg"
  batch_norm_param {
    use_global_stats: true
  }
}

layer {
  name: "inception_3b/double_3x3_reduce_scale/leg"
  type: "Scale"
  bottom: "inception_3b/double_3x3_reduce/leg"
  top: "inception_3b/double_3x3_reduce/leg"
  scale_param {
    bias_term: true
  }
}

layer {
  name: "inception_3b/relu_double_3x3_reduce/leg"
  type: "ReLU"
  bottom: "inception_3b/double_3x3_reduce/leg"
  top: "inception_3b/double_3x3_reduce/leg"
}

layer {
  name: "inception_3b/double_3x3_1/leg"
  type: "Convolution"
  bottom: "inception_3b/double_3x3_reduce/leg"
  top: "inception_3b/double_3x3_1/leg"
  param {
    lr_mult: 0
    decay_mult: 0
  }
  convolution_param {
    num_output: 256
    bias_term: false
    pad: 1
    kernel_size: 3
    stride: 1
    weight_filler {
      type: "xavier"
    }
  }
}

layer {
  name: "inception_3b/double_3x3_1_bn/leg"
  type: "BatchNorm"
  bottom: "inception_3b/double_3x3_1/leg"
  top: "inception_3b/double_3x3_1/leg"
  batch_norm_param {
    use_global_stats: true
  }
}

layer {
  name: "inception_3b/double_3x3_1_scale/leg"
  type: "Scale"
  bottom: "inception_3b/double_3x3_1/leg"
  top: "inception_3b/double_3x3_1/leg"
  scale_param {
    bias_term: true
  }
}

layer {
  name: "inception_3b/relu_double_3x3_1/leg"
  type: "ReLU"
  bottom: "inception_3b/double_3x3_1/leg"
  top: "inception_3b/double_3x3_1/leg"
}

layer {
  name: "inception_3b/double_3x3_2/leg"
  type: "Convolution"
  bottom: "inception_3b/double_3x3_1/leg"
  top: "inception_3b/double_3x3_2/leg"
  param {
    lr_mult: 0
    decay_mult: 0
  }
  convolution_param {
    num_output: 256
    bias_term: false
    pad: 1
    kernel_size: 3
    stride: 2
    weight_filler {
      type: "xavier"
    }
  }
}

layer {
  name: "inception_3b/double_3x3_2_bn/leg"
  type: "BatchNorm"
  bottom: "inception_3b/double_3x3_2/leg"
  top: "inception_3b/double_3x3_2/leg"
  batch_norm_param {
    use_global_stats: true
  }
}

layer {
  name: "inception_3b/double_3x3_2_scale/leg"
  type: "Scale"
  bottom: "inception_3b/double_3x3_2/leg"
  top: "inception_3b/double_3x3_2/leg"
  scale_param {
    bias_term: true
  }
}

layer {
  name: "inception_3b/relu_double_3x3_2/leg"
  type: "ReLU"
  bottom: "inception_3b/double_3x3_2/leg"
  top: "inception_3b/double_3x3_2/leg"
}

layer {
  name: "inception_3b/pool/leg"
  type: "Pooling"
  bottom: "inception_3a/output/leg"
  top: "inception_3b/pool/leg"
  pooling_param {
    pool: MAX
    kernel_size: 3
    stride: 2
  }
}

layer {
  name: "inception_3b/output/leg"
  type: "Concat"
  bottom: "inception_3b/3x3/leg"
  bottom: "inception_3b/double_3x3_2/leg"
  bottom: "inception_3b/pool/leg"
  top: "inception_3b/output/leg"
}

######################### global pool #########################

layer {
  name: "global_pool/leg"
  top: "global_pool/leg"
  bottom: "inception_3b/output/leg"
  type: "Pooling"
  pooling_param {
    pool: AVE
    kernel_h: 6
    kernel_w: 6
    stride: 1
  }
}

######################### fc #########################

layer {
  name: "fc7/leg"
  type: "InnerProduct"
  bottom: "global_pool/leg"
  top: "fc7/leg"
  param {
    lr_mult: 0
    decay_mult: 0
  }
  param {
    lr_mult: 0
    decay_mult: 0
  }
  inner_product_param {
    num_output: 256
    weight_filler {
      type: "gaussian"
      std: 0.001
    }
    bias_filler {
      type: "constant"
      value: 0
    }
  }
}

layer {
  name: "fc7_bn/leg"
  type: "BatchNorm"
  bottom: "fc7/leg"
  top: "fc7/leg"
  batch_norm_param {
    use_global_stats: true
  }
}

layer {
  name: "fc7_scale/leg"
  type: "Scale"
  bottom: "fc7/leg"
  top: "fc7/leg"
  scale_param {
    bias_term: true
  }
}

layer {
  name: "inception_2b/output/rarm"
  bottom: "inception_2b/output"
  bottom: "rarmbox"
  top: "inception_2b/output/rarm"
  type: "ROIPooling"
  roi_pooling_param {
    pooled_w: 12
    pooled_h: 12
    spatial_scale: 0.125 #(1/8)
  }
}

######################### inception_3a #########################

layer {
  name: "inception_3a/1x1/rarm"
  type: "Convolution"
  bottom: "inception_2b/output/rarm"
  top: "inception_3a/1x1/rarm"
  param {
    lr_mult: 0
    decay_mult: 0
  }
  convolution_param {
    num_output: 256
    bias_term: false
    kernel_size: 1
    stride: 1
    weight_filler {
      type: "xavier"
    }
  }
}

layer {
  name: "inception_3a/1x1_bn/rarm"
  type: "BatchNorm"
  bottom: "inception_3a/1x1/rarm"
  top: "inception_3a/1x1/rarm"
  batch_norm_param {
    use_global_stats: true
  }
}

layer {
  name: "inception_3a/1x1_scale/rarm"
  type: "Scale"
  bottom: "inception_3a/1x1/rarm"
  top: "inception_3a/1x1/rarm"
  scale_param {
    bias_term: true
  }
}

layer {
  name: "inception_3a/relu_1x1/rarm"
  type: "ReLU"
  bottom: "inception_3a/1x1/rarm"
  top: "inception_3a/1x1/rarm"
}

layer {
  name: "inception_3a/3x3_reduce/rarm"
  type: "Convolution"
  bottom: "inception_2b/output/rarm"
  top: "inception_3a/3x3_reduce/rarm"
  param {
    lr_mult: 0
    decay_mult: 0
  }
  convolution_param {
    num_output: 256
    bias_term: false
    kernel_size: 1
    stride: 1
    weight_filler {
      type: "xavier"
    }
  }
}

layer {
  name: "inception_3a/3x3_reduce_bn/rarm"
  type: "BatchNorm"
  bottom: "inception_3a/3x3_reduce/rarm"
  top: "inception_3a/3x3_reduce/rarm"
  batch_norm_param {
    use_global_stats: true
  }
}

layer {
  name: "inception_3a/3x3_reduce_scale/rarm"
  type: "Scale"
  bottom: "inception_3a/3x3_reduce/rarm"
  top: "inception_3a/3x3_reduce/rarm"
  scale_param {
    bias_term: true
  }
}

layer {
  name: "inception_3a/relu_3x3_reduce/rarm"
  type: "ReLU"
  bottom: "inception_3a/3x3_reduce/rarm"
  top: "inception_3a/3x3_reduce/rarm"
}

layer {
  name: "inception_3a/3x3/rarm"
  type: "Convolution"
  bottom: "inception_3a/3x3_reduce/rarm"
  top: "inception_3a/3x3/rarm"
  param {
    lr_mult: 0
    decay_mult: 0
  }
  convolution_param {
    num_output: 256
    bias_term: false
    pad: 1
    kernel_size: 3
    stride: 1
    weight_filler {
      type: "xavier"
    }
  }
}

layer {
  name: "inception_3a/3x3_bn/rarm"
  type: "BatchNorm"
  bottom: "inception_3a/3x3/rarm"
  top: "inception_3a/3x3/rarm"
  batch_norm_param {
    use_global_stats: true
  }
}

layer {
  name: "inception_3a/3x3_scale/rarm"
  type: "Scale"
  bottom: "inception_3a/3x3/rarm"
  top: "inception_3a/3x3/rarm"
  scale_param {
    bias_term: true
  }
}

layer {
  name: "inception_3a/relu_3x3/rarm"
  type: "ReLU"
  bottom: "inception_3a/3x3/rarm"
  top: "inception_3a/3x3/rarm"
}

layer {
  name: "inception_3a/double_3x3_reduce/rarm"
  type: "Convolution"
  bottom: "inception_2b/output/rarm"
  top: "inception_3a/double_3x3_reduce/rarm"
  param {
    lr_mult: 0
    decay_mult: 0
  }
  convolution_param {
    num_output: 256
    bias_term: false
    kernel_size: 1
    stride: 1
    weight_filler {
      type: "xavier"
    }
  }
}

layer {
  name: "inception_3a/double_3x3_reduce_bn/rarm"
  type: "BatchNorm"
  bottom: "inception_3a/double_3x3_reduce/rarm"
  top: "inception_3a/double_3x3_reduce/rarm"
  batch_norm_param {
    use_global_stats: true
  }
}

layer {
  name: "inception_3a/double_3x3_reduce_scale/rarm"
  type: "Scale"
  bottom: "inception_3a/double_3x3_reduce/rarm"
  top: "inception_3a/double_3x3_reduce/rarm"
  scale_param {
    bias_term: true
  }
}

layer {
  name: "inception_3a/relu_double_3x3_reduce/rarm"
  type: "ReLU"
  bottom: "inception_3a/double_3x3_reduce/rarm"
  top: "inception_3a/double_3x3_reduce/rarm"
}

layer {
  name: "inception_3a/double_3x3_1/rarm"
  type: "Convolution"
  bottom: "inception_3a/double_3x3_reduce/rarm"
  top: "inception_3a/double_3x3_1/rarm"
  param {
    lr_mult: 0
    decay_mult: 0
  }
  convolution_param {
    num_output: 256
    bias_term: false
    pad: 1
    kernel_size: 3
    stride: 1
    weight_filler {
      type: "xavier"
    }
  }
}

layer {
  name: "inception_3a/double_3x3_1_bn/rarm"
  type: "BatchNorm"
  bottom: "inception_3a/double_3x3_1/rarm"
  top: "inception_3a/double_3x3_1/rarm"
  batch_norm_param {
    use_global_stats: true
  }
}

layer {
  name: "inception_3a/double_3x3_1_scale/rarm"
  type: "Scale"
  bottom: "inception_3a/double_3x3_1/rarm"
  top: "inception_3a/double_3x3_1/rarm"
  scale_param {
    bias_term: true
  }
}

layer {
  name: "inception_3a/relu_double_3x3_1/rarm"
  type: "ReLU"
  bottom: "inception_3a/double_3x3_1/rarm"
  top: "inception_3a/double_3x3_1/rarm"
}

layer {
  name: "inception_3a/double_3x3_2/rarm"
  type: "Convolution"
  bottom: "inception_3a/double_3x3_1/rarm"
  top: "inception_3a/double_3x3_2/rarm"
  param {
    lr_mult: 0
    decay_mult: 0
  }
  convolution_param {
    num_output: 256
    bias_term: false
    pad: 1
    kernel_size: 3
    stride: 1
    weight_filler {
      type: "xavier"
    }
  }
}

layer {
  name: "inception_3a/double_3x3_2_bn/rarm"
  type: "BatchNorm"
  bottom: "inception_3a/double_3x3_2/rarm"
  top: "inception_3a/double_3x3_2/rarm"
  batch_norm_param {
    use_global_stats: true
  }
}

layer {
  name: "inception_3a/double_3x3_2_scale/rarm"
  type: "Scale"
  bottom: "inception_3a/double_3x3_2/rarm"
  top: "inception_3a/double_3x3_2/rarm"
  scale_param {
    bias_term: true
  }
}

layer {
  name: "inception_3a/relu_double_3x3_2/rarm"
  type: "ReLU"
  bottom: "inception_3a/double_3x3_2/rarm"
  top: "inception_3a/double_3x3_2/rarm"
}

layer {
  name: "inception_3a/pool/rarm"
  type: "Pooling"
  bottom: "inception_2b/output/rarm"
  top: "inception_3a/pool/rarm"
  pooling_param {
    pool: AVE
    kernel_size: 3
    stride: 1
    pad: 1
  }
}

layer {
  name: "inception_3a/pool_proj/rarm"
  type: "Convolution"
  bottom: "inception_3a/pool/rarm"
  top: "inception_3a/pool_proj/rarm"
  param {
    lr_mult: 0
    decay_mult: 0
  }
  convolution_param {
    num_output: 256
    bias_term: false
    kernel_size: 1
    stride: 1
    weight_filler {
      type: "xavier"
    }
  }
}

layer {
  name: "inception_3a/pool_proj_bn/rarm"
  type: "BatchNorm"
  bottom: "inception_3a/pool_proj/rarm"
  top: "inception_3a/pool_proj/rarm"
  batch_norm_param {
    use_global_stats: true
  }
}

layer {
  name: "inception_3a/pool_proj_scale/rarm"
  type: "Scale"
  bottom: "inception_3a/pool_proj/rarm"
  top: "inception_3a/pool_proj/rarm"
  scale_param {
    bias_term: true
  }
}

layer {
  name: "inception_3a/relu_pool_proj/rarm"
  type: "ReLU"
  bottom: "inception_3a/pool_proj/rarm"
  top: "inception_3a/pool_proj/rarm"
}

layer {
  name: "inception_3a/output/rarm"
  type: "Concat"
  bottom: "inception_3a/1x1/rarm"
  bottom: "inception_3a/3x3/rarm"
  bottom: "inception_3a/double_3x3_2/rarm"
  bottom: "inception_3a/pool_proj/rarm"
  top: "inception_3a/output/rarm"
}

######################### inception_3b #########################

layer {
  name: "inception_3b/3x3_reduce/rarm"
  type: "Convolution"
  bottom: "inception_3a/output/rarm"
  top: "inception_3b/3x3_reduce/rarm"
  param {
    lr_mult: 0
    decay_mult: 0
  }
  convolution_param {
    num_output: 256
    bias_term: false
    kernel_size: 1
    stride: 1
    weight_filler {
      type: "xavier"
    }
  }
}

layer {
  name: "inception_3b/3x3_reduce_bn/rarm"
  type: "BatchNorm"
  bottom: "inception_3b/3x3_reduce/rarm"
  top: "inception_3b/3x3_reduce/rarm"
  batch_norm_param {
    use_global_stats: true
  }
}

layer {
  name: "inception_3b/3x3_reduce_scale/rarm"
  type: "Scale"
  bottom: "inception_3b/3x3_reduce/rarm"
  top: "inception_3b/3x3_reduce/rarm"
  scale_param {
    bias_term: true
  }
}

layer {
  name: "inception_3b/relu_3x3_reduce/rarm"
  type: "ReLU"
  bottom: "inception_3b/3x3_reduce/rarm"
  top: "inception_3b/3x3_reduce/rarm"
}

layer {
  name: "inception_3b/3x3/rarm"
  type: "Convolution"
  bottom: "inception_3b/3x3_reduce/rarm"
  top: "inception_3b/3x3/rarm"
  param {
    lr_mult: 0
    decay_mult: 0
  }
  convolution_param {
    num_output: 256
    bias_term: false
    pad: 1
    kernel_size: 3
    stride: 2
    weight_filler {
      type: "xavier"
    }
  }
}

layer {
  name: "inception_3b/3x3_bn/rarm"
  type: "BatchNorm"
  bottom: "inception_3b/3x3/rarm"
  top: "inception_3b/3x3/rarm"
  batch_norm_param {
    use_global_stats: true
  }
}

layer {
  name: "inception_3b/3x3_scale/rarm"
  type: "Scale"
  bottom: "inception_3b/3x3/rarm"
  top: "inception_3b/3x3/rarm"
  scale_param {
    bias_term: true
  }
}

layer {
  name: "inception_3b/relu_3x3/rarm"
  type: "ReLU"
  bottom: "inception_3b/3x3/rarm"
  top: "inception_3b/3x3/rarm"
}

layer {
  name: "inception_3b/double_3x3_reduce/rarm"
  type: "Convolution"
  bottom: "inception_3a/output/rarm"
  top: "inception_3b/double_3x3_reduce/rarm"
  param {
    lr_mult: 0
    decay_mult: 0
  }
  convolution_param {
    num_output: 256
    bias_term: false
    kernel_size: 1
    stride: 1
    weight_filler {
      type: "xavier"
    }
  }
}

layer {
  name: "inception_3b/double_3x3_reduce_bn/rarm"
  type: "BatchNorm"
  bottom: "inception_3b/double_3x3_reduce/rarm"
  top: "inception_3b/double_3x3_reduce/rarm"
  batch_norm_param {
    use_global_stats: true
  }
}

layer {
  name: "inception_3b/double_3x3_reduce_scale/rarm"
  type: "Scale"
  bottom: "inception_3b/double_3x3_reduce/rarm"
  top: "inception_3b/double_3x3_reduce/rarm"
  scale_param {
    bias_term: true
  }
}

layer {
  name: "inception_3b/relu_double_3x3_reduce/rarm"
  type: "ReLU"
  bottom: "inception_3b/double_3x3_reduce/rarm"
  top: "inception_3b/double_3x3_reduce/rarm"
}

layer {
  name: "inception_3b/double_3x3_1/rarm"
  type: "Convolution"
  bottom: "inception_3b/double_3x3_reduce/rarm"
  top: "inception_3b/double_3x3_1/rarm"
  param {
    lr_mult: 0
    decay_mult: 0
  }
  convolution_param {
    num_output: 256
    bias_term: false
    pad: 1
    kernel_size: 3
    stride: 1
    weight_filler {
      type: "xavier"
    }
  }
}

layer {
  name: "inception_3b/double_3x3_1_bn/rarm"
  type: "BatchNorm"
  bottom: "inception_3b/double_3x3_1/rarm"
  top: "inception_3b/double_3x3_1/rarm"
  batch_norm_param {
    use_global_stats: true
  }
}

layer {
  name: "inception_3b/double_3x3_1_scale/rarm"
  type: "Scale"
  bottom: "inception_3b/double_3x3_1/rarm"
  top: "inception_3b/double_3x3_1/rarm"
  scale_param {
    bias_term: true
  }
}

layer {
  name: "inception_3b/relu_double_3x3_1/rarm"
  type: "ReLU"
  bottom: "inception_3b/double_3x3_1/rarm"
  top: "inception_3b/double_3x3_1/rarm"
}

layer {
  name: "inception_3b/double_3x3_2/rarm"
  type: "Convolution"
  bottom: "inception_3b/double_3x3_1/rarm"
  top: "inception_3b/double_3x3_2/rarm"
  param {
    lr_mult: 0
    decay_mult: 0
  }
  convolution_param {
    num_output: 256
    bias_term: false
    pad: 1
    kernel_size: 3
    stride: 2
    weight_filler {
      type: "xavier"
    }
  }
}

layer {
  name: "inception_3b/double_3x3_2_bn/rarm"
  type: "BatchNorm"
  bottom: "inception_3b/double_3x3_2/rarm"
  top: "inception_3b/double_3x3_2/rarm"
  batch_norm_param {
    use_global_stats: true
  }
}

layer {
  name: "inception_3b/double_3x3_2_scale/rarm"
  type: "Scale"
  bottom: "inception_3b/double_3x3_2/rarm"
  top: "inception_3b/double_3x3_2/rarm"
  scale_param {
    bias_term: true
  }
}

layer {
  name: "inception_3b/relu_double_3x3_2/rarm"
  type: "ReLU"
  bottom: "inception_3b/double_3x3_2/rarm"
  top: "inception_3b/double_3x3_2/rarm"
}

layer {
  name: "inception_3b/pool/rarm"
  type: "Pooling"
  bottom: "inception_3a/output/rarm"
  top: "inception_3b/pool/rarm"
  pooling_param {
    pool: MAX
    kernel_size: 3
    stride: 2
  }
}

layer {
  name: "inception_3b/output/rarm"
  type: "Concat"
  bottom: "inception_3b/3x3/rarm"
  bottom: "inception_3b/double_3x3_2/rarm"
  bottom: "inception_3b/pool/rarm"
  top: "inception_3b/output/rarm"
}

######################### global pool #########################

layer {
  name: "global_pool/rarm"
  top: "global_pool/rarm"
  bottom: "inception_3b/output/rarm"
  type: "Pooling"
  pooling_param {
    pool: AVE
    kernel_h: 6
    kernel_w: 6
    stride: 1
  }
}

######################### fc #########################

layer {
  name: "fc7/rarm"
  type: "InnerProduct"
  bottom: "global_pool/rarm"
  top: "fc7/rarm"
  param {
    lr_mult: 0
    decay_mult: 0
  }
  param {
    lr_mult: 0
    decay_mult: 0
  }
  inner_product_param {
    num_output: 256
    weight_filler {
      type: "gaussian"
      std: 0.001
    }
    bias_filler {
      type: "constant"
      value: 0
    }
  }
}

layer {
  name: "fc7_bn/rarm"
  type: "BatchNorm"
  bottom: "fc7/rarm"
  top: "fc7/rarm"
  batch_norm_param {
    use_global_stats: true
  }
}

layer {
  name: "fc7_scale/rarm"
  type: "Scale"
  bottom: "fc7/rarm"
  top: "fc7/rarm"
  scale_param {
    bias_term: true
  }
}

layer {
  name: "inception_2b/output/larm"
  bottom: "inception_2b/output"
  bottom: "larmbox"
  top: "inception_2b/output/larm"
  type: "ROIPooling"
  roi_pooling_param {
    pooled_w: 12
    pooled_h: 12
    spatial_scale: 0.125 #(1/8)
  }
}

######################### inception_3a #########################

layer {
  name: "inception_3a/1x1/larm"
  type: "Convolution"
  bottom: "inception_2b/output/larm"
  top: "inception_3a/1x1/larm"
  param {
    lr_mult: 0
    decay_mult: 0
  }
  convolution_param {
    num_output: 256
    bias_term: false
    kernel_size: 1
    stride: 1
    weight_filler {
      type: "xavier"
    }
  }
}

layer {
  name: "inception_3a/1x1_bn/larm"
  type: "BatchNorm"
  bottom: "inception_3a/1x1/larm"
  top: "inception_3a/1x1/larm"
  batch_norm_param {
    use_global_stats: true
  }
}

layer {
  name: "inception_3a/1x1_scale/larm"
  type: "Scale"
  bottom: "inception_3a/1x1/larm"
  top: "inception_3a/1x1/larm"
  scale_param {
    bias_term: true
  }
}

layer {
  name: "inception_3a/relu_1x1/larm"
  type: "ReLU"
  bottom: "inception_3a/1x1/larm"
  top: "inception_3a/1x1/larm"
}

layer {
  name: "inception_3a/3x3_reduce/larm"
  type: "Convolution"
  bottom: "inception_2b/output/larm"
  top: "inception_3a/3x3_reduce/larm"
  param {
    lr_mult: 0
    decay_mult: 0
  }
  convolution_param {
    num_output: 256
    bias_term: false
    kernel_size: 1
    stride: 1
    weight_filler {
      type: "xavier"
    }
  }
}

layer {
  name: "inception_3a/3x3_reduce_bn/larm"
  type: "BatchNorm"
  bottom: "inception_3a/3x3_reduce/larm"
  top: "inception_3a/3x3_reduce/larm"
  batch_norm_param {
    use_global_stats: true
  }
}

layer {
  name: "inception_3a/3x3_reduce_scale/larm"
  type: "Scale"
  bottom: "inception_3a/3x3_reduce/larm"
  top: "inception_3a/3x3_reduce/larm"
  scale_param {
    bias_term: true
  }
}

layer {
  name: "inception_3a/relu_3x3_reduce/larm"
  type: "ReLU"
  bottom: "inception_3a/3x3_reduce/larm"
  top: "inception_3a/3x3_reduce/larm"
}

layer {
  name: "inception_3a/3x3/larm"
  type: "Convolution"
  bottom: "inception_3a/3x3_reduce/larm"
  top: "inception_3a/3x3/larm"
  param {
    lr_mult: 0
    decay_mult: 0
  }
  convolution_param {
    num_output: 256
    bias_term: false
    pad: 1
    kernel_size: 3
    stride: 1
    weight_filler {
      type: "xavier"
    }
  }
}

layer {
  name: "inception_3a/3x3_bn/larm"
  type: "BatchNorm"
  bottom: "inception_3a/3x3/larm"
  top: "inception_3a/3x3/larm"
  batch_norm_param {
    use_global_stats: true
  }
}

layer {
  name: "inception_3a/3x3_scale/larm"
  type: "Scale"
  bottom: "inception_3a/3x3/larm"
  top: "inception_3a/3x3/larm"
  scale_param {
    bias_term: true
  }
}

layer {
  name: "inception_3a/relu_3x3/larm"
  type: "ReLU"
  bottom: "inception_3a/3x3/larm"
  top: "inception_3a/3x3/larm"
}

layer {
  name: "inception_3a/double_3x3_reduce/larm"
  type: "Convolution"
  bottom: "inception_2b/output/larm"
  top: "inception_3a/double_3x3_reduce/larm"
  param {
    lr_mult: 0
    decay_mult: 0
  }
  convolution_param {
    num_output: 256
    bias_term: false
    kernel_size: 1
    stride: 1
    weight_filler {
      type: "xavier"
    }
  }
}

layer {
  name: "inception_3a/double_3x3_reduce_bn/larm"
  type: "BatchNorm"
  bottom: "inception_3a/double_3x3_reduce/larm"
  top: "inception_3a/double_3x3_reduce/larm"
  batch_norm_param {
    use_global_stats: true
  }
}

layer {
  name: "inception_3a/double_3x3_reduce_scale/larm"
  type: "Scale"
  bottom: "inception_3a/double_3x3_reduce/larm"
  top: "inception_3a/double_3x3_reduce/larm"
  scale_param {
    bias_term: true
  }
}

layer {
  name: "inception_3a/relu_double_3x3_reduce/larm"
  type: "ReLU"
  bottom: "inception_3a/double_3x3_reduce/larm"
  top: "inception_3a/double_3x3_reduce/larm"
}

layer {
  name: "inception_3a/double_3x3_1/larm"
  type: "Convolution"
  bottom: "inception_3a/double_3x3_reduce/larm"
  top: "inception_3a/double_3x3_1/larm"
  param {
    lr_mult: 0
    decay_mult: 0
  }
  convolution_param {
    num_output: 256
    bias_term: false
    pad: 1
    kernel_size: 3
    stride: 1
    weight_filler {
      type: "xavier"
    }
  }
}

layer {
  name: "inception_3a/double_3x3_1_bn/larm"
  type: "BatchNorm"
  bottom: "inception_3a/double_3x3_1/larm"
  top: "inception_3a/double_3x3_1/larm"
  batch_norm_param {
    use_global_stats: true
  }
}

layer {
  name: "inception_3a/double_3x3_1_scale/larm"
  type: "Scale"
  bottom: "inception_3a/double_3x3_1/larm"
  top: "inception_3a/double_3x3_1/larm"
  scale_param {
    bias_term: true
  }
}

layer {
  name: "inception_3a/relu_double_3x3_1/larm"
  type: "ReLU"
  bottom: "inception_3a/double_3x3_1/larm"
  top: "inception_3a/double_3x3_1/larm"
}

layer {
  name: "inception_3a/double_3x3_2/larm"
  type: "Convolution"
  bottom: "inception_3a/double_3x3_1/larm"
  top: "inception_3a/double_3x3_2/larm"
  param {
    lr_mult: 0
    decay_mult: 0
  }
  convolution_param {
    num_output: 256
    bias_term: false
    pad: 1
    kernel_size: 3
    stride: 1
    weight_filler {
      type: "xavier"
    }
  }
}

layer {
  name: "inception_3a/double_3x3_2_bn/larm"
  type: "BatchNorm"
  bottom: "inception_3a/double_3x3_2/larm"
  top: "inception_3a/double_3x3_2/larm"
  batch_norm_param {
    use_global_stats: true
  }
}

layer {
  name: "inception_3a/double_3x3_2_scale/larm"
  type: "Scale"
  bottom: "inception_3a/double_3x3_2/larm"
  top: "inception_3a/double_3x3_2/larm"
  scale_param {
    bias_term: true
  }
}

layer {
  name: "inception_3a/relu_double_3x3_2/larm"
  type: "ReLU"
  bottom: "inception_3a/double_3x3_2/larm"
  top: "inception_3a/double_3x3_2/larm"
}

layer {
  name: "inception_3a/pool/larm"
  type: "Pooling"
  bottom: "inception_2b/output/larm"
  top: "inception_3a/pool/larm"
  pooling_param {
    pool: AVE
    kernel_size: 3
    stride: 1
    pad: 1
  }
}

layer {
  name: "inception_3a/pool_proj/larm"
  type: "Convolution"
  bottom: "inception_3a/pool/larm"
  top: "inception_3a/pool_proj/larm"
  param {
    lr_mult: 0
    decay_mult: 0
  }
  convolution_param {
    num_output: 256
    bias_term: false
    kernel_size: 1
    stride: 1
    weight_filler {
      type: "xavier"
    }
  }
}

layer {
  name: "inception_3a/pool_proj_bn/larm"
  type: "BatchNorm"
  bottom: "inception_3a/pool_proj/larm"
  top: "inception_3a/pool_proj/larm"
  batch_norm_param {
    use_global_stats: true
  }
}

layer {
  name: "inception_3a/pool_proj_scale/larm"
  type: "Scale"
  bottom: "inception_3a/pool_proj/larm"
  top: "inception_3a/pool_proj/larm"
  scale_param {
    bias_term: true
  }
}

layer {
  name: "inception_3a/relu_pool_proj/larm"
  type: "ReLU"
  bottom: "inception_3a/pool_proj/larm"
  top: "inception_3a/pool_proj/larm"
}

layer {
  name: "inception_3a/output/larm"
  type: "Concat"
  bottom: "inception_3a/1x1/larm"
  bottom: "inception_3a/3x3/larm"
  bottom: "inception_3a/double_3x3_2/larm"
  bottom: "inception_3a/pool_proj/larm"
  top: "inception_3a/output/larm"
}

######################### inception_3b #########################

layer {
  name: "inception_3b/3x3_reduce/larm"
  type: "Convolution"
  bottom: "inception_3a/output/larm"
  top: "inception_3b/3x3_reduce/larm"
  param {
    lr_mult: 0
    decay_mult: 0
  }
  convolution_param {
    num_output: 256
    bias_term: false
    kernel_size: 1
    stride: 1
    weight_filler {
      type: "xavier"
    }
  }
}

layer {
  name: "inception_3b/3x3_reduce_bn/larm"
  type: "BatchNorm"
  bottom: "inception_3b/3x3_reduce/larm"
  top: "inception_3b/3x3_reduce/larm"
  batch_norm_param {
    use_global_stats: true
  }
}

layer {
  name: "inception_3b/3x3_reduce_scale/larm"
  type: "Scale"
  bottom: "inception_3b/3x3_reduce/larm"
  top: "inception_3b/3x3_reduce/larm"
  scale_param {
    bias_term: true
  }
}

layer {
  name: "inception_3b/relu_3x3_reduce/larm"
  type: "ReLU"
  bottom: "inception_3b/3x3_reduce/larm"
  top: "inception_3b/3x3_reduce/larm"
}

layer {
  name: "inception_3b/3x3/larm"
  type: "Convolution"
  bottom: "inception_3b/3x3_reduce/larm"
  top: "inception_3b/3x3/larm"
  param {
    lr_mult: 0
    decay_mult: 0
  }
  convolution_param {
    num_output: 256
    bias_term: false
    pad: 1
    kernel_size: 3
    stride: 2
    weight_filler {
      type: "xavier"
    }
  }
}

layer {
  name: "inception_3b/3x3_bn/larm"
  type: "BatchNorm"
  bottom: "inception_3b/3x3/larm"
  top: "inception_3b/3x3/larm"
  batch_norm_param {
    use_global_stats: true
  }
}

layer {
  name: "inception_3b/3x3_scale/larm"
  type: "Scale"
  bottom: "inception_3b/3x3/larm"
  top: "inception_3b/3x3/larm"
  scale_param {
    bias_term: true
  }
}

layer {
  name: "inception_3b/relu_3x3/larm"
  type: "ReLU"
  bottom: "inception_3b/3x3/larm"
  top: "inception_3b/3x3/larm"
}

layer {
  name: "inception_3b/double_3x3_reduce/larm"
  type: "Convolution"
  bottom: "inception_3a/output/larm"
  top: "inception_3b/double_3x3_reduce/larm"
  param {
    lr_mult: 0
    decay_mult: 0
  }
  convolution_param {
    num_output: 256
    bias_term: false
    kernel_size: 1
    stride: 1
    weight_filler {
      type: "xavier"
    }
  }
}

layer {
  name: "inception_3b/double_3x3_reduce_bn/larm"
  type: "BatchNorm"
  bottom: "inception_3b/double_3x3_reduce/larm"
  top: "inception_3b/double_3x3_reduce/larm"
  batch_norm_param {
    use_global_stats: true
  }
}

layer {
  name: "inception_3b/double_3x3_reduce_scale/larm"
  type: "Scale"
  bottom: "inception_3b/double_3x3_reduce/larm"
  top: "inception_3b/double_3x3_reduce/larm"
  scale_param {
    bias_term: true
  }
}

layer {
  name: "inception_3b/relu_double_3x3_reduce/larm"
  type: "ReLU"
  bottom: "inception_3b/double_3x3_reduce/larm"
  top: "inception_3b/double_3x3_reduce/larm"
}

layer {
  name: "inception_3b/double_3x3_1/larm"
  type: "Convolution"
  bottom: "inception_3b/double_3x3_reduce/larm"
  top: "inception_3b/double_3x3_1/larm"
  param {
    lr_mult: 0
    decay_mult: 0
  }
  convolution_param {
    num_output: 256
    bias_term: false
    pad: 1
    kernel_size: 3
    stride: 1
    weight_filler {
      type: "xavier"
    }
  }
}

layer {
  name: "inception_3b/double_3x3_1_bn/larm"
  type: "BatchNorm"
  bottom: "inception_3b/double_3x3_1/larm"
  top: "inception_3b/double_3x3_1/larm"
  batch_norm_param {
    use_global_stats: true
  }
}

layer {
  name: "inception_3b/double_3x3_1_scale/larm"
  type: "Scale"
  bottom: "inception_3b/double_3x3_1/larm"
  top: "inception_3b/double_3x3_1/larm"
  scale_param {
    bias_term: true
  }
}

layer {
  name: "inception_3b/relu_double_3x3_1/larm"
  type: "ReLU"
  bottom: "inception_3b/double_3x3_1/larm"
  top: "inception_3b/double_3x3_1/larm"
}

layer {
  name: "inception_3b/double_3x3_2/larm"
  type: "Convolution"
  bottom: "inception_3b/double_3x3_1/larm"
  top: "inception_3b/double_3x3_2/larm"
  param {
    lr_mult: 0
    decay_mult: 0
  }
  convolution_param {
    num_output: 256
    bias_term: false
    pad: 1
    kernel_size: 3
    stride: 2
    weight_filler {
      type: "xavier"
    }
  }
}

layer {
  name: "inception_3b/double_3x3_2_bn/larm"
  type: "BatchNorm"
  bottom: "inception_3b/double_3x3_2/larm"
  top: "inception_3b/double_3x3_2/larm"
  batch_norm_param {
    use_global_stats: true
  }
}

layer {
  name: "inception_3b/double_3x3_2_scale/larm"
  type: "Scale"
  bottom: "inception_3b/double_3x3_2/larm"
  top: "inception_3b/double_3x3_2/larm"
  scale_param {
    bias_term: true
  }
}

layer {
  name: "inception_3b/relu_double_3x3_2/larm"
  type: "ReLU"
  bottom: "inception_3b/double_3x3_2/larm"
  top: "inception_3b/double_3x3_2/larm"
}

layer {
  name: "inception_3b/pool/larm"
  type: "Pooling"
  bottom: "inception_3a/output/larm"
  top: "inception_3b/pool/larm"
  pooling_param {
    pool: MAX
    kernel_size: 3
    stride: 2
  }
}

layer {
  name: "inception_3b/output/larm"
  type: "Concat"
  bottom: "inception_3b/3x3/larm"
  bottom: "inception_3b/double_3x3_2/larm"
  bottom: "inception_3b/pool/larm"
  top: "inception_3b/output/larm"
}

######################### global pool #########################

layer {
  name: "global_pool/larm"
  top: "global_pool/larm"
  bottom: "inception_3b/output/larm"
  type: "Pooling"
  pooling_param {
    pool: AVE
    kernel_h: 6
    kernel_w: 6
    stride: 1
  }
}

######################### fc #########################

layer {
  name: "fc7/larm"
  type: "InnerProduct"
  bottom: "global_pool/larm"
  top: "fc7/larm"
  param {
    lr_mult: 0
    decay_mult: 0
  }
  param {
    lr_mult: 0
    decay_mult: 0
  }
  inner_product_param {
    num_output: 256
    weight_filler {
      type: "gaussian"
      std: 0.001
    }
    bias_filler {
      type: "constant"
      value: 0
    }
  }
}

layer {
  name: "fc7_bn/larm"
  type: "BatchNorm"
  bottom: "fc7/larm"
  top: "fc7/larm"
  batch_norm_param {
    use_global_stats: true
  }
}

layer {
  name: "fc7_scale/larm"
  type: "Scale"
  bottom: "fc7/larm"
  top: "fc7/larm"
  scale_param {
    bias_term: true
  }
}

layer {
  name: "inception_2b/output/rleg"
  bottom: "inception_2b/output"
  bottom: "rlegbox"
  top: "inception_2b/output/rleg"
  type: "ROIPooling"
  roi_pooling_param {
    pooled_w: 12
    pooled_h: 12
    spatial_scale: 0.125 #(1/8)
  }
}

######################### inception_3a #########################

layer {
  name: "inception_3a/1x1/rleg"
  type: "Convolution"
  bottom: "inception_2b/output/rleg"
  top: "inception_3a/1x1/rleg"
  param {
    lr_mult: 0
    decay_mult: 0
  }
  convolution_param {
    num_output: 256
    bias_term: false
    kernel_size: 1
    stride: 1
    weight_filler {
      type: "xavier"
    }
  }
}

layer {
  name: "inception_3a/1x1_bn/rleg"
  type: "BatchNorm"
  bottom: "inception_3a/1x1/rleg"
  top: "inception_3a/1x1/rleg"
  batch_norm_param {
    use_global_stats: true
  }
}

layer {
  name: "inception_3a/1x1_scale/rleg"
  type: "Scale"
  bottom: "inception_3a/1x1/rleg"
  top: "inception_3a/1x1/rleg"
  scale_param {
    bias_term: true
  }
}

layer {
  name: "inception_3a/relu_1x1/rleg"
  type: "ReLU"
  bottom: "inception_3a/1x1/rleg"
  top: "inception_3a/1x1/rleg"
}

layer {
  name: "inception_3a/3x3_reduce/rleg"
  type: "Convolution"
  bottom: "inception_2b/output/rleg"
  top: "inception_3a/3x3_reduce/rleg"
  param {
    lr_mult: 0
    decay_mult: 0
  }
  convolution_param {
    num_output: 256
    bias_term: false
    kernel_size: 1
    stride: 1
    weight_filler {
      type: "xavier"
    }
  }
}

layer {
  name: "inception_3a/3x3_reduce_bn/rleg"
  type: "BatchNorm"
  bottom: "inception_3a/3x3_reduce/rleg"
  top: "inception_3a/3x3_reduce/rleg"
  batch_norm_param {
    use_global_stats: true
  }
}

layer {
  name: "inception_3a/3x3_reduce_scale/rleg"
  type: "Scale"
  bottom: "inception_3a/3x3_reduce/rleg"
  top: "inception_3a/3x3_reduce/rleg"
  scale_param {
    bias_term: true
  }
}

layer {
  name: "inception_3a/relu_3x3_reduce/rleg"
  type: "ReLU"
  bottom: "inception_3a/3x3_reduce/rleg"
  top: "inception_3a/3x3_reduce/rleg"
}

layer {
  name: "inception_3a/3x3/rleg"
  type: "Convolution"
  bottom: "inception_3a/3x3_reduce/rleg"
  top: "inception_3a/3x3/rleg"
  param {
    lr_mult: 0
    decay_mult: 0
  }
  convolution_param {
    num_output: 256
    bias_term: false
    pad: 1
    kernel_size: 3
    stride: 1
    weight_filler {
      type: "xavier"
    }
  }
}

layer {
  name: "inception_3a/3x3_bn/rleg"
  type: "BatchNorm"
  bottom: "inception_3a/3x3/rleg"
  top: "inception_3a/3x3/rleg"
  batch_norm_param {
    use_global_stats: true
  }
}

layer {
  name: "inception_3a/3x3_scale/rleg"
  type: "Scale"
  bottom: "inception_3a/3x3/rleg"
  top: "inception_3a/3x3/rleg"
  scale_param {
    bias_term: true
  }
}

layer {
  name: "inception_3a/relu_3x3/rleg"
  type: "ReLU"
  bottom: "inception_3a/3x3/rleg"
  top: "inception_3a/3x3/rleg"
}

layer {
  name: "inception_3a/double_3x3_reduce/rleg"
  type: "Convolution"
  bottom: "inception_2b/output/rleg"
  top: "inception_3a/double_3x3_reduce/rleg"
  param {
    lr_mult: 0
    decay_mult: 0
  }
  convolution_param {
    num_output: 256
    bias_term: false
    kernel_size: 1
    stride: 1
    weight_filler {
      type: "xavier"
    }
  }
}

layer {
  name: "inception_3a/double_3x3_reduce_bn/rleg"
  type: "BatchNorm"
  bottom: "inception_3a/double_3x3_reduce/rleg"
  top: "inception_3a/double_3x3_reduce/rleg"
  batch_norm_param {
    use_global_stats: true
  }
}

layer {
  name: "inception_3a/double_3x3_reduce_scale/rleg"
  type: "Scale"
  bottom: "inception_3a/double_3x3_reduce/rleg"
  top: "inception_3a/double_3x3_reduce/rleg"
  scale_param {
    bias_term: true
  }
}

layer {
  name: "inception_3a/relu_double_3x3_reduce/rleg"
  type: "ReLU"
  bottom: "inception_3a/double_3x3_reduce/rleg"
  top: "inception_3a/double_3x3_reduce/rleg"
}

layer {
  name: "inception_3a/double_3x3_1/rleg"
  type: "Convolution"
  bottom: "inception_3a/double_3x3_reduce/rleg"
  top: "inception_3a/double_3x3_1/rleg"
  param {
    lr_mult: 0
    decay_mult: 0
  }
  convolution_param {
    num_output: 256
    bias_term: false
    pad: 1
    kernel_size: 3
    stride: 1
    weight_filler {
      type: "xavier"
    }
  }
}

layer {
  name: "inception_3a/double_3x3_1_bn/rleg"
  type: "BatchNorm"
  bottom: "inception_3a/double_3x3_1/rleg"
  top: "inception_3a/double_3x3_1/rleg"
  batch_norm_param {
    use_global_stats: true
  }
}

layer {
  name: "inception_3a/double_3x3_1_scale/rleg"
  type: "Scale"
  bottom: "inception_3a/double_3x3_1/rleg"
  top: "inception_3a/double_3x3_1/rleg"
  scale_param {
    bias_term: true
  }
}

layer {
  name: "inception_3a/relu_double_3x3_1/rleg"
  type: "ReLU"
  bottom: "inception_3a/double_3x3_1/rleg"
  top: "inception_3a/double_3x3_1/rleg"
}

layer {
  name: "inception_3a/double_3x3_2/rleg"
  type: "Convolution"
  bottom: "inception_3a/double_3x3_1/rleg"
  top: "inception_3a/double_3x3_2/rleg"
  param {
    lr_mult: 0
    decay_mult: 0
  }
  convolution_param {
    num_output: 256
    bias_term: false
    pad: 1
    kernel_size: 3
    stride: 1
    weight_filler {
      type: "xavier"
    }
  }
}

layer {
  name: "inception_3a/double_3x3_2_bn/rleg"
  type: "BatchNorm"
  bottom: "inception_3a/double_3x3_2/rleg"
  top: "inception_3a/double_3x3_2/rleg"
  batch_norm_param {
    use_global_stats: true
  }
}

layer {
  name: "inception_3a/double_3x3_2_scale/rleg"
  type: "Scale"
  bottom: "inception_3a/double_3x3_2/rleg"
  top: "inception_3a/double_3x3_2/rleg"
  scale_param {
    bias_term: true
  }
}

layer {
  name: "inception_3a/relu_double_3x3_2/rleg"
  type: "ReLU"
  bottom: "inception_3a/double_3x3_2/rleg"
  top: "inception_3a/double_3x3_2/rleg"
}

layer {
  name: "inception_3a/pool/rleg"
  type: "Pooling"
  bottom: "inception_2b/output/rleg"
  top: "inception_3a/pool/rleg"
  pooling_param {
    pool: AVE
    kernel_size: 3
    stride: 1
    pad: 1
  }
}

layer {
  name: "inception_3a/pool_proj/rleg"
  type: "Convolution"
  bottom: "inception_3a/pool/rleg"
  top: "inception_3a/pool_proj/rleg"
  param {
    lr_mult: 0
    decay_mult: 0
  }
  convolution_param {
    num_output: 256
    bias_term: false
    kernel_size: 1
    stride: 1
    weight_filler {
      type: "xavier"
    }
  }
}

layer {
  name: "inception_3a/pool_proj_bn/rleg"
  type: "BatchNorm"
  bottom: "inception_3a/pool_proj/rleg"
  top: "inception_3a/pool_proj/rleg"
  batch_norm_param {
    use_global_stats: true
  }
}

layer {
  name: "inception_3a/pool_proj_scale/rleg"
  type: "Scale"
  bottom: "inception_3a/pool_proj/rleg"
  top: "inception_3a/pool_proj/rleg"
  scale_param {
    bias_term: true
  }
}

layer {
  name: "inception_3a/relu_pool_proj/rleg"
  type: "ReLU"
  bottom: "inception_3a/pool_proj/rleg"
  top: "inception_3a/pool_proj/rleg"
}

layer {
  name: "inception_3a/output/rleg"
  type: "Concat"
  bottom: "inception_3a/1x1/rleg"
  bottom: "inception_3a/3x3/rleg"
  bottom: "inception_3a/double_3x3_2/rleg"
  bottom: "inception_3a/pool_proj/rleg"
  top: "inception_3a/output/rleg"
}

######################### inception_3b #########################

layer {
  name: "inception_3b/3x3_reduce/rleg"
  type: "Convolution"
  bottom: "inception_3a/output/rleg"
  top: "inception_3b/3x3_reduce/rleg"
  param {
    lr_mult: 0
    decay_mult: 0
  }
  convolution_param {
    num_output: 256
    bias_term: false
    kernel_size: 1
    stride: 1
    weight_filler {
      type: "xavier"
    }
  }
}

layer {
  name: "inception_3b/3x3_reduce_bn/rleg"
  type: "BatchNorm"
  bottom: "inception_3b/3x3_reduce/rleg"
  top: "inception_3b/3x3_reduce/rleg"
  batch_norm_param {
    use_global_stats: true
  }
}

layer {
  name: "inception_3b/3x3_reduce_scale/rleg"
  type: "Scale"
  bottom: "inception_3b/3x3_reduce/rleg"
  top: "inception_3b/3x3_reduce/rleg"
  scale_param {
    bias_term: true
  }
}

layer {
  name: "inception_3b/relu_3x3_reduce/rleg"
  type: "ReLU"
  bottom: "inception_3b/3x3_reduce/rleg"
  top: "inception_3b/3x3_reduce/rleg"
}

layer {
  name: "inception_3b/3x3/rleg"
  type: "Convolution"
  bottom: "inception_3b/3x3_reduce/rleg"
  top: "inception_3b/3x3/rleg"
  param {
    lr_mult: 0
    decay_mult: 0
  }
  convolution_param {
    num_output: 256
    bias_term: false
    pad: 1
    kernel_size: 3
    stride: 2
    weight_filler {
      type: "xavier"
    }
  }
}

layer {
  name: "inception_3b/3x3_bn/rleg"
  type: "BatchNorm"
  bottom: "inception_3b/3x3/rleg"
  top: "inception_3b/3x3/rleg"
  batch_norm_param {
    use_global_stats: true
  }
}

layer {
  name: "inception_3b/3x3_scale/rleg"
  type: "Scale"
  bottom: "inception_3b/3x3/rleg"
  top: "inception_3b/3x3/rleg"
  scale_param {
    bias_term: true
  }
}

layer {
  name: "inception_3b/relu_3x3/rleg"
  type: "ReLU"
  bottom: "inception_3b/3x3/rleg"
  top: "inception_3b/3x3/rleg"
}

layer {
  name: "inception_3b/double_3x3_reduce/rleg"
  type: "Convolution"
  bottom: "inception_3a/output/rleg"
  top: "inception_3b/double_3x3_reduce/rleg"
  param {
    lr_mult: 0
    decay_mult: 0
  }
  convolution_param {
    num_output: 256
    bias_term: false
    kernel_size: 1
    stride: 1
    weight_filler {
      type: "xavier"
    }
  }
}

layer {
  name: "inception_3b/double_3x3_reduce_bn/rleg"
  type: "BatchNorm"
  bottom: "inception_3b/double_3x3_reduce/rleg"
  top: "inception_3b/double_3x3_reduce/rleg"
  batch_norm_param {
    use_global_stats: true
  }
}

layer {
  name: "inception_3b/double_3x3_reduce_scale/rleg"
  type: "Scale"
  bottom: "inception_3b/double_3x3_reduce/rleg"
  top: "inception_3b/double_3x3_reduce/rleg"
  scale_param {
    bias_term: true
  }
}

layer {
  name: "inception_3b/relu_double_3x3_reduce/rleg"
  type: "ReLU"
  bottom: "inception_3b/double_3x3_reduce/rleg"
  top: "inception_3b/double_3x3_reduce/rleg"
}

layer {
  name: "inception_3b/double_3x3_1/rleg"
  type: "Convolution"
  bottom: "inception_3b/double_3x3_reduce/rleg"
  top: "inception_3b/double_3x3_1/rleg"
  param {
    lr_mult: 0
    decay_mult: 0
  }
  convolution_param {
    num_output: 256
    bias_term: false
    pad: 1
    kernel_size: 3
    stride: 1
    weight_filler {
      type: "xavier"
    }
  }
}

layer {
  name: "inception_3b/double_3x3_1_bn/rleg"
  type: "BatchNorm"
  bottom: "inception_3b/double_3x3_1/rleg"
  top: "inception_3b/double_3x3_1/rleg"
  batch_norm_param {
    use_global_stats: true
  }
}

layer {
  name: "inception_3b/double_3x3_1_scale/rleg"
  type: "Scale"
  bottom: "inception_3b/double_3x3_1/rleg"
  top: "inception_3b/double_3x3_1/rleg"
  scale_param {
    bias_term: true
  }
}

layer {
  name: "inception_3b/relu_double_3x3_1/rleg"
  type: "ReLU"
  bottom: "inception_3b/double_3x3_1/rleg"
  top: "inception_3b/double_3x3_1/rleg"
}

layer {
  name: "inception_3b/double_3x3_2/rleg"
  type: "Convolution"
  bottom: "inception_3b/double_3x3_1/rleg"
  top: "inception_3b/double_3x3_2/rleg"
  param {
    lr_mult: 0
    decay_mult: 0
  }
  convolution_param {
    num_output: 256
    bias_term: false
    pad: 1
    kernel_size: 3
    stride: 2
    weight_filler {
      type: "xavier"
    }
  }
}

layer {
  name: "inception_3b/double_3x3_2_bn/rleg"
  type: "BatchNorm"
  bottom: "inception_3b/double_3x3_2/rleg"
  top: "inception_3b/double_3x3_2/rleg"
  batch_norm_param {
    use_global_stats: true
  }
}

layer {
  name: "inception_3b/double_3x3_2_scale/rleg"
  type: "Scale"
  bottom: "inception_3b/double_3x3_2/rleg"
  top: "inception_3b/double_3x3_2/rleg"
  scale_param {
    bias_term: true
  }
}

layer {
  name: "inception_3b/relu_double_3x3_2/rleg"
  type: "ReLU"
  bottom: "inception_3b/double_3x3_2/rleg"
  top: "inception_3b/double_3x3_2/rleg"
}

layer {
  name: "inception_3b/pool/rleg"
  type: "Pooling"
  bottom: "inception_3a/output/rleg"
  top: "inception_3b/pool/rleg"
  pooling_param {
    pool: MAX
    kernel_size: 3
    stride: 2
  }
}

layer {
  name: "inception_3b/output/rleg"
  type: "Concat"
  bottom: "inception_3b/3x3/rleg"
  bottom: "inception_3b/double_3x3_2/rleg"
  bottom: "inception_3b/pool/rleg"
  top: "inception_3b/output/rleg"
}

######################### global pool #########################

layer {
  name: "global_pool/rleg"
  top: "global_pool/rleg"
  bottom: "inception_3b/output/rleg"
  type: "Pooling"
  pooling_param {
    pool: AVE
    kernel_h: 6
    kernel_w: 6
    stride: 1
  }
}

######################### fc #########################

layer {
  name: "fc7/rleg"
  type: "InnerProduct"
  bottom: "global_pool/rleg"
  top: "fc7/rleg"
  param {
    lr_mult: 0
    decay_mult: 0
  }
  param {
    lr_mult: 0
    decay_mult: 0
  }
  inner_product_param {
    num_output: 256
    weight_filler {
      type: "gaussian"
      std: 0.001
    }
    bias_filler {
      type: "constant"
      value: 0
    }
  }
}

layer {
  name: "fc7_bn/rleg"
  type: "BatchNorm"
  bottom: "fc7/rleg"
  top: "fc7/rleg"
  batch_norm_param {
    use_global_stats: true
  }
}

layer {
  name: "fc7_scale/rleg"
  type: "Scale"
  bottom: "fc7/rleg"
  top: "fc7/rleg"
  scale_param {
    bias_term: true
  }
}

layer {
  name: "inception_2b/output/lleg"
  bottom: "inception_2b/output"
  bottom: "llegbox"
  top: "inception_2b/output/lleg"
  type: "ROIPooling"
  roi_pooling_param {
    pooled_w: 12
    pooled_h: 12
    spatial_scale: 0.125 #(1/8)
  }
}

######################### inception_3a #########################

layer {
  name: "inception_3a/1x1/lleg"
  type: "Convolution"
  bottom: "inception_2b/output/lleg"
  top: "inception_3a/1x1/lleg"
  param {
    lr_mult: 0
    decay_mult: 0
  }
  convolution_param {
    num_output: 256
    bias_term: false
    kernel_size: 1
    stride: 1
    weight_filler {
      type: "xavier"
    }
  }
}

layer {
  name: "inception_3a/1x1_bn/lleg"
  type: "BatchNorm"
  bottom: "inception_3a/1x1/lleg"
  top: "inception_3a/1x1/lleg"
  batch_norm_param {
    use_global_stats: true
  }
}

layer {
  name: "inception_3a/1x1_scale/lleg"
  type: "Scale"
  bottom: "inception_3a/1x1/lleg"
  top: "inception_3a/1x1/lleg"
  scale_param {
    bias_term: true
  }
}

layer {
  name: "inception_3a/relu_1x1/lleg"
  type: "ReLU"
  bottom: "inception_3a/1x1/lleg"
  top: "inception_3a/1x1/lleg"
}

layer {
  name: "inception_3a/3x3_reduce/lleg"
  type: "Convolution"
  bottom: "inception_2b/output/lleg"
  top: "inception_3a/3x3_reduce/lleg"
  param {
    lr_mult: 0
    decay_mult: 0
  }
  convolution_param {
    num_output: 256
    bias_term: false
    kernel_size: 1
    stride: 1
    weight_filler {
      type: "xavier"
    }
  }
}

layer {
  name: "inception_3a/3x3_reduce_bn/lleg"
  type: "BatchNorm"
  bottom: "inception_3a/3x3_reduce/lleg"
  top: "inception_3a/3x3_reduce/lleg"
  batch_norm_param {
    use_global_stats: true
  }
}

layer {
  name: "inception_3a/3x3_reduce_scale/lleg"
  type: "Scale"
  bottom: "inception_3a/3x3_reduce/lleg"
  top: "inception_3a/3x3_reduce/lleg"
  scale_param {
    bias_term: true
  }
}

layer {
  name: "inception_3a/relu_3x3_reduce/lleg"
  type: "ReLU"
  bottom: "inception_3a/3x3_reduce/lleg"
  top: "inception_3a/3x3_reduce/lleg"
}

layer {
  name: "inception_3a/3x3/lleg"
  type: "Convolution"
  bottom: "inception_3a/3x3_reduce/lleg"
  top: "inception_3a/3x3/lleg"
  param {
    lr_mult: 0
    decay_mult: 0
  }
  convolution_param {
    num_output: 256
    bias_term: false
    pad: 1
    kernel_size: 3
    stride: 1
    weight_filler {
      type: "xavier"
    }
  }
}

layer {
  name: "inception_3a/3x3_bn/lleg"
  type: "BatchNorm"
  bottom: "inception_3a/3x3/lleg"
  top: "inception_3a/3x3/lleg"
  batch_norm_param {
    use_global_stats: true
  }
}

layer {
  name: "inception_3a/3x3_scale/lleg"
  type: "Scale"
  bottom: "inception_3a/3x3/lleg"
  top: "inception_3a/3x3/lleg"
  scale_param {
    bias_term: true
  }
}

layer {
  name: "inception_3a/relu_3x3/lleg"
  type: "ReLU"
  bottom: "inception_3a/3x3/lleg"
  top: "inception_3a/3x3/lleg"
}

layer {
  name: "inception_3a/double_3x3_reduce/lleg"
  type: "Convolution"
  bottom: "inception_2b/output/lleg"
  top: "inception_3a/double_3x3_reduce/lleg"
  param {
    lr_mult: 0
    decay_mult: 0
  }
  convolution_param {
    num_output: 256
    bias_term: false
    kernel_size: 1
    stride: 1
    weight_filler {
      type: "xavier"
    }
  }
}

layer {
  name: "inception_3a/double_3x3_reduce_bn/lleg"
  type: "BatchNorm"
  bottom: "inception_3a/double_3x3_reduce/lleg"
  top: "inception_3a/double_3x3_reduce/lleg"
  batch_norm_param {
    use_global_stats: true
  }
}

layer {
  name: "inception_3a/double_3x3_reduce_scale/lleg"
  type: "Scale"
  bottom: "inception_3a/double_3x3_reduce/lleg"
  top: "inception_3a/double_3x3_reduce/lleg"
  scale_param {
    bias_term: true
  }
}

layer {
  name: "inception_3a/relu_double_3x3_reduce/lleg"
  type: "ReLU"
  bottom: "inception_3a/double_3x3_reduce/lleg"
  top: "inception_3a/double_3x3_reduce/lleg"
}

layer {
  name: "inception_3a/double_3x3_1/lleg"
  type: "Convolution"
  bottom: "inception_3a/double_3x3_reduce/lleg"
  top: "inception_3a/double_3x3_1/lleg"
  param {
    lr_mult: 0
    decay_mult: 0
  }
  convolution_param {
    num_output: 256
    bias_term: false
    pad: 1
    kernel_size: 3
    stride: 1
    weight_filler {
      type: "xavier"
    }
  }
}

layer {
  name: "inception_3a/double_3x3_1_bn/lleg"
  type: "BatchNorm"
  bottom: "inception_3a/double_3x3_1/lleg"
  top: "inception_3a/double_3x3_1/lleg"
  batch_norm_param {
    use_global_stats: true
  }
}

layer {
  name: "inception_3a/double_3x3_1_scale/lleg"
  type: "Scale"
  bottom: "inception_3a/double_3x3_1/lleg"
  top: "inception_3a/double_3x3_1/lleg"
  scale_param {
    bias_term: true
  }
}

layer {
  name: "inception_3a/relu_double_3x3_1/lleg"
  type: "ReLU"
  bottom: "inception_3a/double_3x3_1/lleg"
  top: "inception_3a/double_3x3_1/lleg"
}

layer {
  name: "inception_3a/double_3x3_2/lleg"
  type: "Convolution"
  bottom: "inception_3a/double_3x3_1/lleg"
  top: "inception_3a/double_3x3_2/lleg"
  param {
    lr_mult: 0
    decay_mult: 0
  }
  convolution_param {
    num_output: 256
    bias_term: false
    pad: 1
    kernel_size: 3
    stride: 1
    weight_filler {
      type: "xavier"
    }
  }
}

layer {
  name: "inception_3a/double_3x3_2_bn/lleg"
  type: "BatchNorm"
  bottom: "inception_3a/double_3x3_2/lleg"
  top: "inception_3a/double_3x3_2/lleg"
  batch_norm_param {
    use_global_stats: true
  }
}

layer {
  name: "inception_3a/double_3x3_2_scale/lleg"
  type: "Scale"
  bottom: "inception_3a/double_3x3_2/lleg"
  top: "inception_3a/double_3x3_2/lleg"
  scale_param {
    bias_term: true
  }
}

layer {
  name: "inception_3a/relu_double_3x3_2/lleg"
  type: "ReLU"
  bottom: "inception_3a/double_3x3_2/lleg"
  top: "inception_3a/double_3x3_2/lleg"
}

layer {
  name: "inception_3a/pool/lleg"
  type: "Pooling"
  bottom: "inception_2b/output/lleg"
  top: "inception_3a/pool/lleg"
  pooling_param {
    pool: AVE
    kernel_size: 3
    stride: 1
    pad: 1
  }
}

layer {
  name: "inception_3a/pool_proj/lleg"
  type: "Convolution"
  bottom: "inception_3a/pool/lleg"
  top: "inception_3a/pool_proj/lleg"
  param {
    lr_mult: 0
    decay_mult: 0
  }
  convolution_param {
    num_output: 256
    bias_term: false
    kernel_size: 1
    stride: 1
    weight_filler {
      type: "xavier"
    }
  }
}

layer {
  name: "inception_3a/pool_proj_bn/lleg"
  type: "BatchNorm"
  bottom: "inception_3a/pool_proj/lleg"
  top: "inception_3a/pool_proj/lleg"
  batch_norm_param {
    use_global_stats: true
  }
}

layer {
  name: "inception_3a/pool_proj_scale/lleg"
  type: "Scale"
  bottom: "inception_3a/pool_proj/lleg"
  top: "inception_3a/pool_proj/lleg"
  scale_param {
    bias_term: true
  }
}

layer {
  name: "inception_3a/relu_pool_proj/lleg"
  type: "ReLU"
  bottom: "inception_3a/pool_proj/lleg"
  top: "inception_3a/pool_proj/lleg"
}

layer {
  name: "inception_3a/output/lleg"
  type: "Concat"
  bottom: "inception_3a/1x1/lleg"
  bottom: "inception_3a/3x3/lleg"
  bottom: "inception_3a/double_3x3_2/lleg"
  bottom: "inception_3a/pool_proj/lleg"
  top: "inception_3a/output/lleg"
}

######################### inception_3b #########################

layer {
  name: "inception_3b/3x3_reduce/lleg"
  type: "Convolution"
  bottom: "inception_3a/output/lleg"
  top: "inception_3b/3x3_reduce/lleg"
  param {
    lr_mult: 0
    decay_mult: 0
  }
  convolution_param {
    num_output: 256
    bias_term: false
    kernel_size: 1
    stride: 1
    weight_filler {
      type: "xavier"
    }
  }
}

layer {
  name: "inception_3b/3x3_reduce_bn/lleg"
  type: "BatchNorm"
  bottom: "inception_3b/3x3_reduce/lleg"
  top: "inception_3b/3x3_reduce/lleg"
  batch_norm_param {
    use_global_stats: true
  }
}

layer {
  name: "inception_3b/3x3_reduce_scale/lleg"
  type: "Scale"
  bottom: "inception_3b/3x3_reduce/lleg"
  top: "inception_3b/3x3_reduce/lleg"
  scale_param {
    bias_term: true
  }
}

layer {
  name: "inception_3b/relu_3x3_reduce/lleg"
  type: "ReLU"
  bottom: "inception_3b/3x3_reduce/lleg"
  top: "inception_3b/3x3_reduce/lleg"
}

layer {
  name: "inception_3b/3x3/lleg"
  type: "Convolution"
  bottom: "inception_3b/3x3_reduce/lleg"
  top: "inception_3b/3x3/lleg"
  param {
    lr_mult: 0
    decay_mult: 0
  }
  convolution_param {
    num_output: 256
    bias_term: false
    pad: 1
    kernel_size: 3
    stride: 2
    weight_filler {
      type: "xavier"
    }
  }
}

layer {
  name: "inception_3b/3x3_bn/lleg"
  type: "BatchNorm"
  bottom: "inception_3b/3x3/lleg"
  top: "inception_3b/3x3/lleg"
  batch_norm_param {
    use_global_stats: true
  }
}

layer {
  name: "inception_3b/3x3_scale/lleg"
  type: "Scale"
  bottom: "inception_3b/3x3/lleg"
  top: "inception_3b/3x3/lleg"
  scale_param {
    bias_term: true
  }
}

layer {
  name: "inception_3b/relu_3x3/lleg"
  type: "ReLU"
  bottom: "inception_3b/3x3/lleg"
  top: "inception_3b/3x3/lleg"
}

layer {
  name: "inception_3b/double_3x3_reduce/lleg"
  type: "Convolution"
  bottom: "inception_3a/output/lleg"
  top: "inception_3b/double_3x3_reduce/lleg"
  param {
    lr_mult: 0
    decay_mult: 0
  }
  convolution_param {
    num_output: 256
    bias_term: false
    kernel_size: 1
    stride: 1
    weight_filler {
      type: "xavier"
    }
  }
}

layer {
  name: "inception_3b/double_3x3_reduce_bn/lleg"
  type: "BatchNorm"
  bottom: "inception_3b/double_3x3_reduce/lleg"
  top: "inception_3b/double_3x3_reduce/lleg"
  batch_norm_param {
    use_global_stats: true
  }
}

layer {
  name: "inception_3b/double_3x3_reduce_scale/lleg"
  type: "Scale"
  bottom: "inception_3b/double_3x3_reduce/lleg"
  top: "inception_3b/double_3x3_reduce/lleg"
  scale_param {
    bias_term: true
  }
}

layer {
  name: "inception_3b/relu_double_3x3_reduce/lleg"
  type: "ReLU"
  bottom: "inception_3b/double_3x3_reduce/lleg"
  top: "inception_3b/double_3x3_reduce/lleg"
}

layer {
  name: "inception_3b/double_3x3_1/lleg"
  type: "Convolution"
  bottom: "inception_3b/double_3x3_reduce/lleg"
  top: "inception_3b/double_3x3_1/lleg"
  param {
    lr_mult: 0
    decay_mult: 0
  }
  convolution_param {
    num_output: 256
    bias_term: false
    pad: 1
    kernel_size: 3
    stride: 1
    weight_filler {
      type: "xavier"
    }
  }
}

layer {
  name: "inception_3b/double_3x3_1_bn/lleg"
  type: "BatchNorm"
  bottom: "inception_3b/double_3x3_1/lleg"
  top: "inception_3b/double_3x3_1/lleg"
  batch_norm_param {
    use_global_stats: true
  }
}

layer {
  name: "inception_3b/double_3x3_1_scale/lleg"
  type: "Scale"
  bottom: "inception_3b/double_3x3_1/lleg"
  top: "inception_3b/double_3x3_1/lleg"
  scale_param {
    bias_term: true
  }
}

layer {
  name: "inception_3b/relu_double_3x3_1/lleg"
  type: "ReLU"
  bottom: "inception_3b/double_3x3_1/lleg"
  top: "inception_3b/double_3x3_1/lleg"
}

layer {
  name: "inception_3b/double_3x3_2/lleg"
  type: "Convolution"
  bottom: "inception_3b/double_3x3_1/lleg"
  top: "inception_3b/double_3x3_2/lleg"
  param {
    lr_mult: 0
    decay_mult: 0
  }
  convolution_param {
    num_output: 256
    bias_term: false
    pad: 1
    kernel_size: 3
    stride: 2
    weight_filler {
      type: "xavier"
    }
  }
}

layer {
  name: "inception_3b/double_3x3_2_bn/lleg"
  type: "BatchNorm"
  bottom: "inception_3b/double_3x3_2/lleg"
  top: "inception_3b/double_3x3_2/lleg"
  batch_norm_param {
    use_global_stats: true
  }
}

layer {
  name: "inception_3b/double_3x3_2_scale/lleg"
  type: "Scale"
  bottom: "inception_3b/double_3x3_2/lleg"
  top: "inception_3b/double_3x3_2/lleg"
  scale_param {
    bias_term: true
  }
}

layer {
  name: "inception_3b/relu_double_3x3_2/lleg"
  type: "ReLU"
  bottom: "inception_3b/double_3x3_2/lleg"
  top: "inception_3b/double_3x3_2/lleg"
}

layer {
  name: "inception_3b/pool/lleg"
  type: "Pooling"
  bottom: "inception_3a/output/lleg"
  top: "inception_3b/pool/lleg"
  pooling_param {
    pool: MAX
    kernel_size: 3
    stride: 2
  }
}

layer {
  name: "inception_3b/output/lleg"
  type: "Concat"
  bottom: "inception_3b/3x3/lleg"
  bottom: "inception_3b/double_3x3_2/lleg"
  bottom: "inception_3b/pool/lleg"
  top: "inception_3b/output/lleg"
}

######################### global pool #########################

layer {
  name: "global_pool/lleg"
  top: "global_pool/lleg"
  bottom: "inception_3b/output/lleg"
  type: "Pooling"
  pooling_param {
    pool: AVE
    kernel_h: 6
    kernel_w: 6
    stride: 1
  }
}

######################### fc #########################

layer {
  name: "fc7/lleg"
  type: "InnerProduct"
  bottom: "global_pool/lleg"
  top: "fc7/lleg"
  param {
    lr_mult: 0
    decay_mult: 0
  }
  param {
    lr_mult: 0
    decay_mult: 0
  }
  inner_product_param {
    num_output: 256
    weight_filler {
      type: "gaussian"
      std: 0.001
    }
    bias_filler {
      type: "constant"
      value: 0
    }
  }
}

layer {
  name: "fc7_bn/lleg"
  type: "BatchNorm"
  bottom: "fc7/lleg"
  top: "fc7/lleg"
  batch_norm_param {
    use_global_stats: true
  }
}

layer {
  name: "fc7_scale/lleg"
  type: "Scale"
  bottom: "fc7/lleg"
  top: "fc7/lleg"
  scale_param {
    bias_term: true
  }
}

######################### FFN #########################

layer {
  name: "max_arms"
  bottom: "fc7/larm"
  bottom: "fc7/rarm"
  top: "max_arms"
  type: "Eltwise"
  eltwise_param {
    operation: MAX
  }
}

layer {
  name: "max_legs"
  bottom: "fc7/lleg"
  bottom: "fc7/rleg"
  top: "max_legs"
  type: "Eltwise"
  eltwise_param {
    operation: MAX
  }
}

layer {
  name: "fc_legs"
  type: "InnerProduct"
  bottom: "max_legs"
  top: "fc_legs"
  param {
    lr_mult: 1
    decay_mult: 1
  }
  param {
    lr_mult: 2
    decay_mult: 0
  }
  inner_product_param {
    num_output: 256
    weight_filler {
      type: "gaussian"
      std: 0.001
    }
    bias_filler {
      type: "constant"
      value: 0
    }
  }
}

layer {
  name: "fc_arms"
  type: "InnerProduct"
  bottom: "max_arms"
  top: "fc_arms"
  param {
    lr_mult: 1
    decay_mult: 1
  }
  param {
    lr_mult: 2
    decay_mult: 0
  }
  inner_product_param {
    num_output: 256
    weight_filler {
      type: "gaussian"
      std: 0.001
    }
    bias_filler {
      type: "constant"
      value: 0
    }
  }
}

layer {
  name: "max_part_1"
  bottom: "fc7/leg"
  bottom: "fc_legs"
  top: "max_part_1"
  type: "Eltwise"
  eltwise_param {
    operation: MAX
  }
}

layer {
  name: "max_part_2"
  bottom: "fc7/body"
  bottom: "fc_arms"
  top: "max_part_2"
  type: "Eltwise"
  eltwise_param {
    operation: MAX
  }
}

layer {
  name: "fc_part_1"
  type: "InnerProduct"
  bottom: "max_part_1"
  top: "fc_part_1"
  param {
    lr_mult: 1
    decay_mult: 1
  }
  param {
    lr_mult: 2
    decay_mult: 0
  }
  inner_product_param {
    num_output: 256
    weight_filler {
      type: "gaussian"
      std: 0.001
    }
    bias_filler {
      type: "constant"
      value: 0
    }
  }
}

layer {
  name: "fc_part_2"
  type: "InnerProduct"
  bottom: "max_part_2"
  top: "fc_part_2"
  param {
    lr_mult: 1
    decay_mult: 1
  }
  param {
    lr_mult: 2
    decay_mult: 0
  }
  inner_product_param {
    num_output: 256
    weight_filler {
      type: "gaussian"
      std: 0.001
    }
    bias_filler {
      type: "constant"
      value: 0
    }
  }
}

layer {
  name: "max_parts_all"
  bottom: "fc7/head"
  bottom: "fc_part_1"
  bottom: "fc_part_2"
  top: "max_parts_all"
  type: "Eltwise"
  eltwise_param {
    operation: MAX
  }
}

layer {
  name: "fc_parts_all"
  type: "InnerProduct"
  bottom: "max_parts_all"
  top: "fc_parts_all"
  param {
    lr_mult: 1
    decay_mult: 1
  }
  param {
    lr_mult: 2
    decay_mult: 0
  }
  inner_product_param {
    num_output: 256
    weight_filler {
      type: "gaussian"
      std: 0.001
    }
    bias_filler {
      type: "constant"
      value: 0
    }
  }
}

layer {
  name: "max_all"
  bottom: "fc7"
  bottom: "fc_parts_all"  
  top: "max_all"
  type: "Concat"
  concat_param {
    axis: 1
  }
}

layer {
  name: "fc7/spindle"
  type: "InnerProduct"
  bottom: "max_all"
  top: "fc7/spindle"
  param {
    lr_mult: 1
    decay_mult: 1
  }
  param {
    lr_mult: 2
    decay_mult: 0
  }
  inner_product_param {
    num_output: 256
    weight_filler {
      type: "gaussian"
      std: 0.001
    }
    bias_filler {
      type: "constant"
      value: 0
    }
  }
}

